DQN/model/model32700.pkl (torch, 580039 bytes, 10 tensors)

conv1.weight f4 [32, 4, 8, 8]
000000 9f 70 9b 3c dd ae ba 3d 68 94 5e 3c a5 e6 d9 3c
       0.0189746 0.09115384 0.0135851875 0.026599238
000010 22 3a 06 bd a1 c0 1b be d1 a9 ae bd c4 7f f2 3c
       -0.032770284 -0.15210201 -0.08528484 0.029601939
000020 5a ac c0 bd 6d c9 16 bd e1 97 47 be 6f 81 7c be
       -0.094078735 -0.03681319 -0.19491531 -0.2465875
000030 81 9c d2 be 7e f8 5e be 54 03 82 bd 86 2a b5 3d
       -0.41135028 -0.2177448 -0.06348291 0.08846001
000040 81 a5 f0 bc f6 65 d4 3d 3a 04 21 3c 11 fe 3e be
       -0.029375793 0.1037101 0.009827668 -0.18651606
000050 08 f1 9f be b0 b0 8f be ab 7e e4 bd d6 b8 b2 bb
       -0.3123858 -0.2806449 -0.111569725 -0.005454163
000060 1b ec cc 3e 0a 99 84 bd 08 1f 94 3c 37 a2 7f be
       0.40023884 -0.064745024 0.018081203 -0.24964224
000070 15 cc 42 be fd 2f 66 3c d2 c5 2d 3e 46 98 3d 3e
       -0.19023164 0.014049527 0.16969994 0.18515119
000080 07 7f 93 3e 16 3b f5 3d 48 74 10 bd 43 1e a0 be
       0.28807852 0.119741604 -0.035267144 -0.31273088
000090 50 c4 3c bf 38 51 22 be cb 66 6c be bb 5e ed 3b
       -0.7373705 -0.15851295 -0.23086087 0.007243959
0000a0 34 f1 15 3e d1 31 f0 bd 9b ed a9 be 6d a8 24 bf
       0.14642793 -0.11728252 -0.3318909 -0.643195
0000b0 a9 7a 5c bf e9 21 1e bb 3e f0 f3 3c 4f 2a 5c 3d
       -0.86124665 -0.0024129099 0.029777642 0.053751286
0000c0 50 2e 08 3e bc db c3 3d 15 9b 8a be 19 44 ee be
       0.13298917 0.095633954 -0.27071443 -0.4653633
0000d0 32 1b d5 be cd a1 1e bf bb 55 73 be 79 cf 43 be
       -0.4162231 -0.6196564 -0.23763172 -0.19122113
0000e0 ba 7c b2 bc 30 7d 3a be 30 2e 4f bf 2f c9 83 bf
       -0.02178799 -0.18211818 -0.8092985 -1.0295771
0000f0 6f 42 1f bf a8 35 37 bf 30 1d 42 bf a6 c5 6f bf
       -0.62210745 -0.7156625 -0.75825787 -0.9366096
000100 29 95 d1 bc cb 28 03 be f5 00 04 3d 9a ab 46 bd
       -0.02558382 -0.1280853 0.032227475 -0.048503496
000110 df cf 85 bd d5 9b 26 3e 0c 8a 4b 3c 3a ce 55 3c
       -0.06533789 0.16270383 0.01242305 0.0130496565
000120 e9 02 dd 3c 73 41 49 bc 72 26 d6 3d 37 ce 6f 3e
       0.026978927 -0.012283671 0.104565516 0.23418508
000130 50 4d 8e 3e 0f 4e 8e 3e 87 f8 14 3e b1 a4 5b 3d
       0.2779336 0.2779393 0.1454793 0.05362386
000140 f4 27 17 3d c1 c3 67 3d 68 c3 67 3d ab 29 47 3e
       0.036903337 0.05658317 0.05658284 0.19449489
000150 e0 bb 9b 3e 19 fa 60 3e 2d cc c0 3d 63 8b 08 3e
       0.30416775 0.21970405 0.094139434 0.13334422
000160 45 fe 94 bd c2 ce 71 3c b8 38 8c 3d af f7 74 3e
       -0.072750606 0.014758768 0.06846756 0.23922609
000170 54 9c db 3e f5 96 a9 3e 50 f9 8b 3d de cc 56 bd
       0.42892706 0.33122984 0.06834662 -0.05244147
000180 49 17 48 bd 3b 18 ea bd 7b d1 f7 3d ee 67 45 3e
       -0.04885033 -0.11430403 0.12100502 0.19277927
000190 9e e9 56 3e ac 42 3f bc 1f 20 89 bc da b0 3d be
       0.20987555 -0.011673611 -0.01673895 -0.18524495
0001a0 27 a3 d2 bd 60 c3 45 3d df 8f 76 3e 14 17 93 3e
       -0.10285025 0.048282027 0.2407832 0.28728545
0001b0 a8 fb 3b 3e 65 dc 11 3d 50 4b 00 be 59 61 a9 3d
       0.18357718 0.035610575 -0.1252873 0.08270521
0001c0 7a 70 ad 3c 75 6d c8 3d 91 74 2c 3e 99 54 10 3f
       0.021171797 0.09786502 0.16841342 0.56379086
0001d0 f3 10 bf 3e b4 92 3f bd 2d 41 b4 3d cb b4 8b 3d
       0.3731762 -0.046770766 0.08801494 0.06821593
0001e0 3c b7 6d 3d de 65 08 3e 08 02 34 3e bf 24 29 3f
       0.058036074 0.13320109 0.175789 0.66071695
0001f0 7c e9 13 3f f9 f4 1d 3d 36 fb a8 be 6c 37 78 be
       0.57778144 0.038563702 -0.3300416 -0.24239892
000200 48 26 e7 bd 2c 06 17 be 7c 2a ce bd dd d7 ee bd
       -0.112865984 -0.14748448 -0.10066697 -0.116622664
000210 01 0c be bc c9 e7 0e bc 03 3e 47 3c e5 de c7 3c
       -0.023199083 -0.008722254 0.012160781 0.024398277
000220 94 be 11 bd 0d 70 48 bb 4f 31 0c 3d 92 a5 cf 3c
       -0.03558214 -0.0030584366 0.03422671 0.025347505
000230 ff cf a4 bb f6 84 17 bd 48 0c 30 bd 6a fd 18 be
       -0.005029678 -0.036992036 -0.042980462 -0.1494042
000240 62 6a c1 3d 02 8c fc 3c 73 14 28 3d 7d 91 bc 3d
       0.09444119 0.03082848 0.041035127 0.09207437
000250 ed 52 82 3d 86 6c 19 3e 20 bf 28 3e f9 d6 0b 3e
       0.06363473 0.14982805 0.16479158 0.13656224
000260 5d 88 6d bd 3a 89 bd bd 60 68 8f bd a0 bf ba bc
       -0.057991374 -0.092546895 -0.0700233 -0.022796452
000270 d8 2b 7d 3d 91 8f b9 3d f7 ad 80 3c a0 a2 aa 3c
       0.06180939 0.09060586 0.015707953 0.020829499
000280 6f 84 18 bd 2e 71 75 3c 8a f6 84 bc c0 b2 08 3d
       -0.037235674 0.014980597 -0.01623084 0.033373594
000290 39 a4 67 bc 01 7c ae bc d8 69 56 3d 5b 31 fc 3d
       -0.014138275 -0.021299364 0.052347034 0.12314101
0002a0 8f 82 1f 3d 4d ff c3 3d 40 49 01 3d 48 30 a5 3d
       0.03894287 0.09570179 0.031563997 0.080658495
0002b0 80 33 0c 3e 47 f1 1c 3e c9 ae 9a 3d dc 66 0b 3e
       0.1369152 0.15326415 0.07552869 0.13613456
0002c0 bd dc 20 be fb 57 08 bc 5c e2 ba 3c ce 5c 18 3d
       -0.15709205 -0.008321757 0.022813015 0.03719788
0002d0 68 16 64 3c d1 2a e2 3c 60 36 d8 bd d8 b8 d4 bd
       0.013921358 0.027608307 -0.10557246 -0.10386819
0002e0 b8 d2 9d bc 4d 90 9b bb 9a 84 3d 3e d2 59 93 3e
       -0.019265518 -0.0047474266 0.18507615 0.28779465
0002f0 a1 ce af 3e d7 b6 05 3e eb 1a aa bd bc 49 43 bd
       0.34337333 0.13058029 -0.083059154 -0.04767774
000300 9b 13 90 3d c5 0e 37 3c 80 79 4f bd 3a df e0 bd
       0.070349894 0.011172955 -0.05065298 -0.10980077
000310 76 45 78 bd 44 28 1b bc 71 a0 97 bd 1f f3 1c be
       -0.060613118 -0.009470049 -0.07403649 -0.15327118
000320 84 2b 32 3d 58 e4 b0 3d a9 32 2c 3d fd 8c c0 3a
       0.04349853 0.08637303 0.0420405 0.0014690455
000330 07 37 26 bd 78 99 03 3d 68 83 00 bd d1 97 e8 bc
       -0.040579822 0.03212878 -0.03137532 -0.028392704
000340 1d c9 ed 3d 2b fe 09 3d 0a 18 a2 3d b8 cf c8 3d
       0.11610625 0.03368966 0.07914741 0.09805244
000350 84 6e fa 3c 48 6a 82 3d 7b 32 9b 3d ab 89 cd bd
       0.030570276 0.06367928 0.07577988 -0.10036024
000360 43 1c 38 3d f7 7b 5d 3c 09 39 c1 bb ed 18 08 3d
       0.044948827 0.013518325 -0.0058966917 0.033226896
000370 c3 53 75 3d f7 3d 0d 3d 8a a1 f0 3c 51 78 33 bd
       0.059894335 0.034482922 0.029373903 -0.043815915
000380 ae c0 3e bd 2d 21 18 3d bc 03 f7 bd 84 00 8f bd
       -0.046570472 0.037141014 -0.12061259 -0.0698252
000390 f8 50 44 bd 90 a5 8b 3c 36 37 e8 3b 95 17 1b 3e
       -0.04792878 0.01704672 0.00708666 0.15145715
0003a0 14 df d1 3d d5 c5 c2 3d 37 be 31 bd ef 31 f6 3c
       0.10247627 0.0951039 -0.043394294 0.030053107
0003b0 9a 67 bd bc 7c 56 93 3d 84 f5 dd 3d 58 c9 05 3e
       -0.02312069 0.0719423 0.10837844 0.13065088
0003c0 01 e5 bd 3c cb 1d 2d bd f1 10 72 bd 8b fb cd bd
       0.023180487 -0.04226474 -0.059098188 -0.10057744
0003d0 2f 39 e1 bc 60 89 12 bd f3 21 41 bd 26 03 24 bb
       -0.027493088 -0.035775542 -0.047151517 -0.002502629
0003e0 9e 9e cf bc ee 3f 1e be 9f a2 f0 bd 8c 66 98 3c
       -0.02534419 -0.15454075 -0.117497675 0.018603586
0003f0 c7 53 4a 3c a9 be 35 bd 79 c6 0e 3d b4 d8 10 be
       0.012349076 -0.04437128 0.034857247 -0.14145166

conv1.bias f4 [32]
000000 ad 59 92 3d 5f 9a 01 3e d1 02 de ba 9b 85 eb bc
       0.071460105 0.12656544 -0.0016938095 -0.028750231
000010 0d 68 32 bd b2 86 04 3e 42 e3 b9 bd aa 16 e4 bb
       -0.04355626 0.12942007 -0.09076549 -0.0069607096
000020 bf 1d f3 bd d9 eb f0 3d ea a4 85 3d 94 71 27 bd
       -0.11870908 0.11763734 0.065255955 -0.0408798
000030 4a 21 fe 3c 56 ee 64 3e 48 85 30 3c 6f c9 97 bd
       0.031021733 0.22356543 0.010773964 -0.07411467
000040 c2 df 1d bb 6b 8a b8 bb 27 f3 21 bc b6 c7 54 bb
       -0.002408967 -0.005631735 -0.009884632 -0.003246767
000050 49 77 d1 bc 2a c9 79 3d f8 ab 31 bd 89 70 84 bc
       -0.025569575 0.06098286 -0.043376893 -0.016166942
000060 10 a6 cd 3c cb 6a 51 bd 8b ce ed bb b3 e3 3c 3c
       0.025103599 -0.051127236 -0.007257288 0.011528897
000070 b9 4f a2 bd c2 42 16 3e 50 17 1f bc 95 c5 38 3e
       -0.07925362 0.14673904 -0.009710148 0.18044122

conv2.weight f4 [64, 32, 4, 4]
000000 f2 e4 ac be 0e 3b 8b be b4 f1 17 be 7d 8d 76 be
       -0.3376842 -0.27193493 -0.14838296 -0.24077411
000010 1e 7a 9a be 58 10 89 be 5f 3a c2 bd d2 8d 92 bd
       -0.30171293 -0.26770282 -0.0948379 -0.07155956
000020 43 dc 83 bd a7 47 5e be 4e a4 dc bd 80 87 f4 bd
       -0.06438496 -0.2170702 -0.10773526 -0.11939907
000030 53 62 84 3e 78 15 46 3e 01 e6 d8 3d 2e 30 95 3e
       0.25856265 0.19344127 0.10590745 0.2913832
000040 d1 d1 40 bf 21 ac 8d be 2e 5f dd 3d a2 17 a1 3c
       -0.75320154 -0.27670386 0.1080917 0.01966459
000050 27 a7 91 3e 0d 89 dd 3e e4 95 c8 3e f9 2b 18 3e
       0.2844784 0.43268624 0.39176857 0.14860524
000060 e0 f3 c5 3e 9d ef 77 be 49 d3 c5 bd 81 28 b4 bd
       0.38662624 -0.24212499 -0.0965944 -0.08796788
000070 59 7b 4f be 7c 98 dd bd eb 74 3d 3e 93 82 88 3d
       -0.20261897 -0.108201 0.18501632 0.0666553
000080 6f b7 82 bd 1b 5d d4 3d 30 bf cd 3d 28 06 61 be
       -0.063826434 0.10369321 0.10046232 -0.21975005
000090 a0 ed d1 3d b8 20 68 3a 37 0e df bb df f8 15 bf
       0.102504015 0.0008854973 -0.0068071145 -0.5858287
0000a0 bb 4b 06 be db 64 08 bf 07 bb 08 3c 51 37 86 be
       -0.13114826 -0.53278893 0.008345372 -0.26214078
0000b0 b2 b6 eb 3e 20 38 0e 3f 43 27 07 bf c4 e5 ab 3c
       0.46037823 0.5555439 -0.52794284 0.020983584
0000c0 63 b1 ab be 1f 84 3d be 9d 2f c3 be db f6 1b be
       -0.33533773 -0.18507431 -0.38122264 -0.15230887
0000d0 fe a2 b7 3e b3 bf 69 3e 6c 9f 79 3e 09 53 c5 be
       0.3586654 0.22827034 0.24377221 -0.38539913
0000e0 e4 75 1e 3f f6 01 93 3e ee 4c c3 3d 6b d9 88 3c
       0.61898637 0.28712434 0.095361575 0.016705235
0000f0 e7 dc 20 ba 01 c9 34 3c a3 10 41 be ee db 4d 3e
       -0.00061364326 0.011034251 -0.18854003 0.20103428
000100 48 6b 3a be 9a 6b a5 bc 46 8e c9 3d 3d 00 8a 3d
       -0.18204987 -0.02019291 0.0984159 0.06738327
000110 bb d9 cb 3e c7 fd 11 be de 26 8b be 95 27 0a 3c
       0.39814553 -0.14256965 -0.2717809 0.008432289
000120 04 05 c3 be a6 3f 2e bf c0 52 2e be 15 dd a0 be
       -0.38089764 -0.6806587 -0.17023754 -0.31418672
000130 bb 15 21 3e 96 44 05 3e 15 7d c1 bd 46 b1 b8 be
       0.15730946 0.13014445 -0.09447686 -0.3607275
000140 89 4d 09 bf d4 06 6a be 98 a8 71 bc 59 2e 83 be
       -0.53633934 -0.22854167 -0.014749669 -0.25621298
000150 f2 18 52 be 08 37 15 be 80 08 15 be b4 01 2c 3e
       -0.20517328 -0.14571774 -0.14554024 0.16797525
000160 f4 2e cb be 8d 42 57 be 12 3d 12 be ee 9b 3a 3e
       -0.3968426 -0.21021481 -0.14281109 0.18223545
000170 af 7d bc bc c9 32 b7 3e 92 f6 bd 3e d3 05 46 3e
       -0.02300915 0.35780933 0.3710218 0.1933816
000180 a3 dc b7 3e 8f 6e db bd ef ce f8 3c b7 c3 f0 bc
       0.3591052 -0.10714447 0.030372111 -0.0293902
000190 2e 4e 80 be cc 01 94 3d c4 ed 0b be c1 71 97 bd
       -0.25059646 0.07226905 -0.13664919 -0.07394744
0001a0 29 06 26 be 81 87 57 3e c8 ef 73 be 67 7b 9b be
       -0.16213287 0.21047784 -0.23821938 -0.30367586
0001b0 fe ae 0e 3e 4c 75 93 3c 4d 39 24 bf 85 d4 dd be
       0.13933942 0.018000267 -0.64149934 -0.43326202
0001c0 41 9f 0c 3f 2f 63 d6 3e d4 a8 d3 be db f4 3f 3e
       0.549305 0.41872546 -0.41339743 0.18745749
0001d0 4e d0 9a 3e 71 aa 2c 3e a1 9c 40 3e 1b 15 7b 3c
       0.3023705 0.16861893 0.18809749 0.015324856
0001e0 96 80 42 3e e5 fc 77 3e 8e 4e b1 3d 3c e1 45 be
       0.18994364 0.24217565 0.08657561 -0.19324201
0001f0 b5 84 d1 3e 98 f0 12 be c1 65 a0 be 35 21 a7 bd
       0.4092156 -0.14349592 -0.31327632 -0.081606306
000200 35 82 24 be 7b 61 3e bd 09 df 1e bf 1e 91 e2 bd
       -0.16065295 -0.046479683 -0.62059075 -0.11062835
000210 09 83 84 3e 42 c9 cd 3d 24 73 01 bf 4b a8 d4 3d
       0.25881222 0.100481525 -0.50566316 0.10383662
000220 fe 54 c2 3c 31 e7 93 be 85 a5 d3 be 56 42 3a bf
       0.023722168 -0.28887323 -0.4133722 -0.7275747
000230 0f 5b c6 3e 5b 25 93 3e fd c4 7d 3e 35 9a a3 3e
       0.38741347 0.28739437 0.24782176 0.31953588
000240 b9 b4 cf be bd f4 42 bd 65 cd c9 3d 33 87 56 bd
       -0.40567568 -0.047596682 0.09853629 -0.05237503
000250 27 75 50 bd ab 16 6c 3e 5d 90 c1 3e c8 ed 82 3e
       -0.050892975 0.23055522 0.37805453 0.25572038
000260 01 b3 06 be 75 26 85 be 57 f6 27 3e 41 1b 75 be
       -0.13154222 -0.26005903 0.16402565 -0.23936178
000270 c7 0b 1b 3e 72 cd 2a 3e cf 17 d4 bc 20 8b 4a 3e
       0.15141211 0.16679934 -0.02589026 0.19779634
000280 c5 ac 0b be a6 0a 02 bf 2e 27 33 bb 05 b0 7a 3e
       -0.13640125 -0.507975 -0.0027336585 0.24481209
000290 c9 e8 10 3e 1a ab 88 3e 7a 03 ed be de 27 99 be
       0.141513 0.2669304 -0.46291715 -0.2991323
0002a0 4c 96 8c 3e e2 3b 23 3e b4 ab 53 be 97 45 66 be
       0.27458417 0.15940812 -0.20670968 -0.22487484
0002b0 ef 7e c2 bd 68 63 52 3d 81 ee 98 be b9 c7 ff bd
       -0.09496867 0.051364332 -0.29869464 -0.12489266
0002c0 18 2e 25 be c0 3a 90 bc 89 8a 00 3f 7b 1b 87 3e
       -0.16130865 -0.01760614 0.5021139 0.26388153
0002d0 29 be a6 3e 17 b3 0a 3d 1f 1b ea 3c 54 75 93 3d
       0.32566956 0.0338622 0.028577385 0.07200113
0002e0 00 ff 09 bd 69 c2 f2 be 78 c0 57 be e9 47 62 3e
       -0.033690453 -0.47413948 -0.21069515 0.22097744
0002f0 b5 81 4d be ac 1c 94 3e 0f d7 d1 3e e6 5f 32 bd
       -0.2006901 0.28928125 0.4098439 -0.043548487
000300 a6 fe cc 3e 29 0f 7d 3e e8 27 9d 3e 7c 11 95 3e
       0.4003803 0.24712814 0.3069451 0.29114902
000310 76 40 16 3e 7e dd 1c be 0c 07 de 39 11 00 8e 3e
       0.14673027 -0.15318868 0.0004234839 0.27734426
000320 ba ba 2b 3e 16 57 45 3f c5 a0 55 be 7b 28 85 3e
       0.1677045 0.7708601 -0.2086211 0.26007447
000330 bc 99 56 3d 47 50 c4 3d 9a 3b d4 bc 31 33 6a be
       0.052392706 0.09585624 -0.025907326 -0.2287109
000340 bd 5f 16 3e 35 93 8b bd 5c fd 08 3e 93 f6 de 3d
       0.14684959 -0.06815187 0.13377899 0.10886874
000350 7f 03 47 bd 69 11 42 3e be 2c 2a 3e e7 71 89 3e
       -0.04858732 0.18951954 0.1661863 0.26844713
000360 c1 f1 7d be 41 22 43 3a fd 7d ec 3d 15 ec ce 3c
       -0.24799253 0.0007443764 0.11547468 0.025259057
000370 66 b8 4e bd 8a e1 cc 3d 1e 73 31 3e 1c 87 9f 3d
       -0.050468825 0.10003956 0.1732907 0.07789442
000380 f9 1a 3d bd 27 0c dc 3c 4e 13 7a be de 75 5d 3e
       -0.0461683 0.026861263 -0.24421427 0.21626994
000390 b6 d9 2b be 78 3f 68 be 3c b6 47 be 7e f4 dc 3d
       -0.16782269 -0.22680461 -0.1950311 0.10788821
0003a0 30 e2 31 3e 00 52 fc bc 8c a0 02 3e d2 3a ef 3d
       0.1737144 -0.03080082 0.12756556 0.11681141
0003b0 31 f6 3f 3e cd 65 cd bd 46 d8 59 be 5b 68 a1 be
       0.18746258 -0.100291826 -0.21273908 -0.3152493
0003c0 41 96 69 be 94 62 e6 3d 81 e2 55 be d5 d4 9d bd
       -0.22811224 0.11249271 -0.20887186 -0.0770661
0003d0 ad 7f 39 3d 27 b3 bd bd e5 ff df bc 26 cf 66 bd
       0.045287777 -0.09262686 -0.0273437 -0.056349896
0003e0 89 b3 6e 3e c9 74 8f be 7b be 13 bf 76 fa 40 be
       0.23310675 -0.28018788 -0.57712525 -0.18845543
0003f0 7c 9c 96 3e 07 6e 86 3d d3 d5 87 be 7b ec 0f be
       0.29416263 0.06563955 -0.26530322 -0.14055054

conv2.bias f4 [64]
000000 a0 b4 df 3d 69 36 a4 3d 43 c1 fd bd 88 35 77 3d
       0.10923123 0.080181904 -0.12390377 0.060353786
000010 8a fb e4 3c 0c 18 01 3b 0c 79 90 3d e0 5e c6 bd
       0.027951974 0.001969817 0.07054338 -0.09686065
000020 e9 ce a6 bc 13 a0 01 be 2d d8 8c bd a9 f9 ff 3c
       -0.020362334 -0.1265872 -0.0687717 0.031246977
000030 fe 70 97 3c 7c 47 3e 3d 23 aa 89 39 c8 e2 8a bd
       0.018486496 0.04645489 0.00026257438 -0.06781536
000040 1d 05 d5 bd f5 19 63 3e 97 88 47 bd 68 19 de bd
       -0.10401366 0.2217787 -0.048714247 -0.108446896
000050 cf 26 1d 3c 84 d1 e1 bc 63 9f 56 be 7f 2e c3 bd
       0.009591772 -0.027565725 -0.20959239 -0.09530353
000060 b7 87 ce bd 93 4a 8b 3e 39 e1 99 bc 10 53 f4 bc
       -0.10084479 0.27205333 -0.018784152 -0.029824764
000070 4b 71 33 be 82 c0 48 3e 81 48 48 be ad 22 40 3e
       -0.17523687 0.19604686 -0.19558908 0.18763228
000080 4c 98 8b 3d d3 0c 63 3d 4a ba 24 3c 80 0d 3e 3b
       0.06816158 0.055432152 0.01005418 0.0028999746
000090 3f 62 23 bc 23 cd 0d 3d 41 94 11 be 95 f5 35 3c
       -0.009972154 0.03461946 -0.1421671 0.011105915
0000a0 6d b9 fc 3d 49 41 be 3c 27 41 a1 bd 56 4e 4f bd
       0.12340055 0.02322449 -0.07873755 -0.050611816
0000b0 74 8e cb 3d 7b 09 75 bd 1e a4 b2 3d c6 1c 8c bc
       0.0993928 -0.059823494 0.08722709 -0.017103564
0000c0 35 b7 06 3d 0a e4 43 bd a0 96 3e be fb b0 7a 3c
       0.032889564 -0.047824897 -0.18612146 0.0153009845
0000d0 15 12 5e bd 11 e1 03 3e ad 75 68 bd d7 39 d5 3d
       -0.054216463 0.12878825 -0.05675285 0.10411423
0000e0 6f 8f a3 bd 2a eb 1c be dd 05 05 bd 5a 74 74 bd
       -0.07986342 -0.15324083 -0.032476295 -0.059681274
0000f0 eb ff 26 bd e8 23 39 3e 5b 46 11 bd 5c 5a 3e 3e
       -0.040771406 0.18080103 -0.035467487 0.18589157

conv3.weight f4 [64, 64, 3, 3]
000000 d5 39 14 be 60 9b 21 be d8 19 af bd d8 d0 c1 3d
       -0.14475186 -0.15781927 -0.08549851 0.09463662
000010 6e 9b 93 3d ef 73 2f bd 89 a4 ca 3d 5f cd e5 3d
       0.0720738 -0.042835172 0.09894664 0.11220812
000020 15 b5 25 3e 12 01 9b 3d 97 74 db bc b3 0b 8b 3b
       0.16182359 0.075685635 -0.026788993 0.004243338
000030 83 04 40 3d 45 0a 36 bc 30 69 b4 bc b4 e7 05 3e
       0.046879303 -0.011110847 -0.022022814 0.13076669
000040 20 df ae 3d 7e 2e 96 bd a4 34 31 3d 9a 1a 67 3d
       0.085386515 -0.073330864 0.043263093 0.056421854
000050 22 a3 b2 3d 64 f3 ca 3d 28 03 a1 3d 86 2f a6 3d
       0.08722521 0.09909704 0.0786193 0.08114533
000060 89 3b 69 3a aa 0e 88 3d 2a 40 a2 3c c4 9d 1c 3c
       0.0008897116 0.06643422 0.019805986 0.009559099
000070 96 3b 85 bd e3 02 ec bb 79 03 b9 bd 95 57 24 bb
       -0.06505506 -0.0072024926 -0.090338655 -0.0025076617
000080 93 5d 6c bd cf 53 60 bc 19 fe 91 3d 22 09 44 3e
       -0.057706427 -0.0136918565 0.071285434 0.19144109
000090 78 8f f3 3c 16 96 83 bd d5 d5 08 3d be 54 56 3d
       0.029731497 -0.06425111 0.03340705 0.05232691
0000a0 1c 91 3a 3d 6a f6 06 3e 09 9d 8c 3e 68 bf 18 3e
       0.045548543 0.13179937 0.27463558 0.14916766
0000b0 6a d5 17 be 57 b3 1a 3c 03 ca 58 3c 8f f5 36 3e
       -0.14827505 0.009442172 0.013231757 0.1786711
0000c0 1d 6a 09 bc 0d 00 13 bc ca 51 eb 3d b4 48 4d 3d
       -0.008387116 -0.00897218 0.114902094 0.050118163
0000d0 b3 27 be 3d 4a ae 42 3e 48 72 c0 3d f3 5c 01 3e
       0.09284916 0.19011799 0.093967974 0.12633114
0000e0 ad aa 1c 3d db 7f 52 bc 37 4a 8b bd c5 02 33 be
       0.038248707 -0.012847866 -0.06801265 -0.17481525
0000f0 01 26 18 3d 90 65 c7 3d 7c 06 02 bc 84 cb 9c 3b
       0.03714562 0.097361684 -0.007936116 0.004785003
000100 e5 79 b3 3c 6c 99 0a 3d bd b2 08 bb f0 be 74 3d
       0.02190871 0.03383772 -0.002085849 0.059752405
000110 cf f3 0e 3d 55 d7 e6 3c 2f 5e 54 3d 1d 64 56 bc
       0.034900483 0.02817885 0.051847633 -0.013085392
000120 37 b2 9e 3d 72 f3 68 3d 01 06 cc 3d c0 3c 52 3d
       0.077488355 0.056872793 0.09962083 0.051327467
000130 c9 5b 13 3d b5 cf fa bc 72 4f 7a bd 56 7e 82 bd
       0.035976205 -0.03061662 -0.06111092 -0.06371753
000140 be fb f3 bc 02 e7 8c 3d 56 36 9f 3d 15 2c f8 3c
       -0.029783126 0.06879999 0.07774036 0.030294457
000150 85 4a 4c 3c 1b 9d 71 bb 88 02 00 3d a6 e0 cd 3c
       0.012468939 -0.0036867324 0.031252414 0.025131535
000160 f2 e3 a1 3c e0 eb 0f bc ba 5c db 3d ac ca a7 3d
       0.019762013 -0.008784264 0.107110456 0.081929535
000170 61 e8 c5 3d 86 61 89 3d 44 d6 ca 3c f1 1f df 3d
       0.096634634 0.06708054 0.024760373 0.10894764
000180 8b d0 f3 3c 10 e5 bb bc b4 76 51 bd 7e ea f2 3d
       0.029762527 -0.022936374 -0.051138595 0.11861132
000190 92 5d 2a bd c7 f3 11 3a 84 d8 32 3d c4 b9 56 3d
       -0.04159314 0.00055676367 0.043663517 0.052423254
0001a0 2f 75 76 bd 62 a1 76 3d ac 76 b3 3d 4d 3a 7c 3d
       -0.06017035 0.0602125 0.08762869 0.061579037
0001b0 99 76 7e 3e d0 8f e9 3d 12 f9 5e be 02 54 52 bd
       0.24849929 0.11404383 -0.217747 -0.051349647
0001c0 22 86 93 bd db 9f a4 be fe 29 48 ba 46 d6 93 3d
       -0.07203318 -0.3215321 -0.0007635652 0.07218604
0001d0 cb 94 00 be 0a 8f 00 3d 17 b0 80 3d 11 20 af 3c
       -0.1255676 0.031386413 0.062835865 0.021377595
0001e0 6b b7 30 3d 11 0c 31 bc 4e bd 98 bd b0 5d 71 3d
       0.04314367 -0.0108060995 -0.07457982 0.058927238
0001f0 a3 70 a1 3d 7c 6b 12 3e 23 a6 a2 3d 5a e3 27 bd
       0.07882812 0.14298815 0.07941844 -0.040988304
000200 4e 9f 09 be 98 e6 9a bd a0 9e 8a bb d7 e9 f1 3c
       -0.13439676 -0.075635135 -0.0042303354 0.029530449
000210 c6 c0 62 3d 0a f1 92 3c a1 6e 87 bd 81 db c8 bc
       0.055359624 0.017937202 -0.06612898 -0.02451873
000220 4c 5b 26 3d 35 a2 1c 3e 2b c0 ee 3d 01 e0 c8 3c
       0.04061441 0.15296252 0.11657747 0.024520876
000230 ef ec 7c bd c1 e5 85 bc eb 6a 69 3b 60 f5 88 bd
       -0.061749395 -0.016344907 0.0035616707 -0.066874266
000240 11 9f 17 3d a2 21 80 3d dd e4 b3 bb 94 cf 29 3c
       0.037016932 0.06256415 -0.005489929 0.010364432
000250 16 64 4e 3d da ac 92 3b 0e e6 f2 3c 76 b5 0b 3d
       0.05038842 0.004476172 0.029650714 0.0341086
000260 33 8f 8c 3c 7b 07 1e 3d 8b ea fa 3b 8d ea 33 3e
       0.017158126 0.038581353 0.007657354 0.17569943
000270 2a 97 6d 3d 20 b7 ad 3d c6 e6 0e bd ef 6f 2b 3c
       0.05800549 0.08482194 -0.03488805 0.010463699
000280 41 bc 08 3d a8 5a 8f ba 14 df a0 bd 18 82 87 bd
       0.033382658 -0.0010937052 -0.07855049 -0.0661661
000290 2c 9e 0a 3e 01 8c d3 3d b4 e1 81 3c e0 b4 1d 3e
       0.135369 0.10329438 0.015854694 0.1540103
0002a0 9d 5d 99 3d e9 28 b4 3c f3 05 29 3e 9c 3f 03 bd
       0.074885584 0.021992164 0.16506176 -0.032043085
0002b0 05 df 41 bd 21 ba 87 bc 89 80 74 bd 4c 96 4a 3c
       -0.04733183 -0.016568245 -0.059692893 0.012364935
0002c0 d2 aa 07 bc 04 8b 19 3e f7 00 29 3e 65 6a 4a 3d
       -0.008280473 0.14994437 0.16504274 0.049417872
0002d0 b9 83 e3 3d 8e ca 58 3d a0 8e a3 bd e1 60 b9 bc
       0.111091085 0.052927546 -0.07986188 -0.022629203
0002e0 8f a1 ff bd 76 d1 42 bc 2d 3e 2a bb 5c 4f 81 bc
       -0.12481987 -0.01189076 -0.0025977 -0.015784912
0002f0 b9 d0 86 3d 25 80 00 3d a7 17 0d 3e 81 07 b1 3d
       0.065827794 0.03137221 0.13778554 0.086440094
000300 64 18 cb 3d bf ef bf 3d 24 2f dc 3c 01 59 05 3d
       0.099167615 0.093719 0.026877947 0.032555584
000310 04 dd 8e 3d 48 36 17 3d d0 56 19 3d 93 d2 ac 3c
       0.06975749 0.036917 0.037436306 0.021096503
000320 d2 18 11 3d 2a 39 03 3d 7c 6f c2 bc 35 c4 86 bd
       0.03542406 0.032036938 -0.0237348 -0.06580392
000330 42 ca 0f 3e 87 2d c9 3d e4 77 d0 3d aa 9d ec 3d
       0.14041999 0.09823137 0.10179117 0.115535095
000340 2b 5f 4d 3e 91 9c bc 3d e6 92 d2 3d 23 47 4a 3d
       0.20055835 0.0920955 0.10281925 0.049384248
000350 a1 2a d2 3c 04 e0 86 3a ec 49 cb 3b 9e 7f 01 3d
       0.025655093 0.001029015 0.0062038805 0.031615846
000360 df 1d de 3d 7e d8 a6 3c a5 d9 db bb 86 04 63 3d
       0.10845541 0.020366903 -0.006709295 0.055424236
000370 95 13 1c 3d 05 07 9d 3d 92 e5 cc 3c 20 be 13 bd
       0.038104612 0.076673545 0.025011811 -0.03606999
000380 a6 4a 81 bd 9e f7 45 3d 6b 8a fe 3b 2e 75 9b 3d
       -0.06313066 0.04833185 0.0077679656 0.075907096
000390 4e 13 b4 3c c2 8a f5 3b a8 a0 c3 3c 15 dd 62 3d
       0.021981861 0.007493348 0.023880318 0.05538662
0003a0 48 20 0c 3e 71 2e a6 3d 83 09 89 bd 82 a8 81 bc
       0.1368419 0.08114327 -0.06691267 -0.015827421
0003b0 5a bf 1b 3e b4 00 7b 3c bf 32 f1 3d 1c 1b 22 3e
       0.15209714 0.015319992 0.11777257 0.15830654
0003c0 0f 0c 0d 3e 9a f7 c7 3d 72 35 12 3e f1 14 7a 3d
       0.13774131 0.09764023 0.142782 0.061055128
0003d0 65 8d 14 3e de 2b 90 3d 13 7a 37 3d 49 b9 61 bd
       0.14507063 0.07039617 0.044794153 -0.055108342
0003e0 9d 26 db bd e1 3b c6 bd 81 f5 18 bd 45 ca 1a bd
       -0.10700724 -0.0967939 -0.037343506 -0.037790556
0003f0 42 f3 89 bd 50 26 77 3c ad 01 05 bd 11 4b 17 3d
       -0.06735851 0.015084818 -0.0324723 0.036936823

conv3.bias f4 [64]
000000 c3 93 97 3e 42 24 53 3e 68 d6 e0 bc 5c 59 26 bd
       0.2960492 0.206193 -0.027445987 -0.040612563
000010 b9 23 04 bd 09 a6 36 bd 67 12 86 bd 14 90 9e 3d
       -0.03226063 -0.044591937 -0.06546479 0.077423245
000020 5b cd d6 3c bb c0 21 bc 10 54 36 3e 4e 53 03 3d
       0.026220968 -0.009872611 0.17805505 0.032061867
000030 ff b0 07 bc 6a c1 19 3d 94 b5 37 3d 95 36 8f 3c
       -0.008281945 0.03753797 0.0448509 0.017482081
000040 2c 6d 42 3d e5 be 57 bd 8a b4 6f 3e d1 37 92 3e
       0.047467396 -0.052672286 0.23408714 0.2855821
000050 13 f8 78 3e a9 66 7e 3d 30 56 29 3e db 12 d8 3d
       0.24313383 0.062109623 0.16536784 0.105504714
000060 83 16 8d 3e 46 69 ee 3d 55 fe 85 3d 36 6c 1a 3e
       0.27556238 0.11641173 0.065426506 0.15080342
000070 85 72 16 3d 5a 35 c1 3e 3c ae bd 3d 01 94 b0 bd
       0.036730308 0.37736017 0.09261748 -0.086219795
000080 e5 ae 74 3e 98 28 25 3d db b8 6e bc 5f 58 1a 3d
       0.23894842 0.040321916 -0.01457044 0.037681933
000090 30 de 60 3e ad 22 f2 bb 1a e8 91 3d 98 e7 bb bc
       0.21959758 -0.0073893876 0.07124348 -0.022937581
0000a0 b9 30 8f 3e 2f 83 a5 3e e8 20 d2 bc 34 82 2d 3e
       0.2796686 0.32326648 -0.025650457 0.169442
0000b0 27 ac b7 3c d0 27 1b 3d ae 12 dc 3c 73 68 cb 3c
       0.022420956 0.037879765 0.026864376 0.024830079
0000c0 bf e1 de 3d e9 a3 d2 bc c2 7e 0c 3e 63 b6 19 3e
       0.108829014 -0.025712924 0.1372023 0.15010981
0000d0 fe 86 0a 3e 33 20 a3 3e 2d 6e 25 bd 56 eb 47 bb
       0.13528058 0.31860504 -0.040388275 -0.0030505261
0000e0 40 76 72 bb 01 26 a6 3d 40 65 58 bd 36 56 bc 3d
       -0.0036996752 0.081127174 -0.052830935 0.09196131
0000f0 12 f9 85 3e bc 8a e0 3d aa 75 c9 3b 34 90 8d 3c
       0.26166588 0.109639615 0.00614806 0.017280675

fc1.weight f4 [256, 256]
000000 d6 f7 e4 3d 2b 5a 06 3d c8 d3 b0 3d f9 3d 85 3d
       0.111800835 0.032800835 0.08634144 0.06505961
000010 2a 29 ca be 0d 13 29 be a4 65 b0 be 35 3b b5 be
       -0.3948453 -0.16511174 -0.34452546 -0.35396734
000020 11 af 8c 3c 31 91 41 bd 89 15 cc bd e9 a6 19 bc
       0.017173322 -0.047257606 -0.09965045 -0.009378173
000030 89 78 c1 bd 38 df 0e bf d7 58 fc 3d b0 05 95 3d
       -0.094468184 -0.55809355 0.12321632 0.072764754
000040 eb 0d 20 3c 3f 45 d1 bb b0 bd a6 bb 5f 0c 16 3d
       0.009768943 -0.0063864286 -0.0050885305 0.03663289
000050 fe c4 49 3e 3a af 27 bd 76 4b 9e be e7 99 6b bd
       0.19704053 -0.040938593 -0.30916947 -0.05751982
000060 88 76 39 3e 03 c2 aa be f2 de ce bb 00 52 b4 be
       0.18111622 -0.33351144 -0.0063131982 -0.3521881
000070 06 e4 97 bd 8f e1 10 3d ec 68 d6 bc 79 3e 54 3e
       -0.07416539 0.03537136 -0.026173078 0.20726956
000080 2a 81 98 be 23 7b 31 3d 09 af b7 bd 11 be 4b bc
       -0.29786044 0.043330323 -0.08968932 -0.012435452
000090 b9 c2 07 3e b7 56 c4 3c b1 90 03 be 7d 51 64 3e
       0.13257875 0.02396713 -0.12848164 0.2229671
0000a0 2d 25 99 3d 1f 30 69 3d 59 60 9e bc 6a ea 30 3d
       0.07477794 0.056930657 -0.019333052 0.043192305
0000b0 f1 9f 70 be 8b d5 19 be 38 50 17 be 86 23 d0 3c
       -0.23498513 -0.15022866 -0.14776695 0.025407564
0000c0 7b 2f 8b bd 21 58 64 3b 24 fe 63 bd 31 43 36 bd
       -0.067961656 0.0034842568 -0.05566229 -0.044497672
0000d0 6d af 2d bf 57 7f 5b bd a2 23 f9 bc c8 11 ec bc
       -0.67845803 -0.053588238 -0.030412499 -0.028817073
0000e0 0f 02 77 bd 02 9a 66 3e f5 a0 f1 bb 29 6f 0b bd
       -0.060304698 0.22519687 -0.007373924 -0.034041557
0000f0 49 74 53 ba 00 85 cf bc 03 c9 9c 3d 3a 30 17 bd
       -0.0008066339 -0.025331974 0.076555274 -0.036911227
000100 4e 9e a3 3e 82 66 2b 3e 60 fb 27 3e 4f 60 66 3e
       0.31956714 0.16738322 0.16404486 0.22497676
000110 4e 9f 88 be 58 14 4a be fa 54 b5 bd 33 79 02 3c
       -0.2668404 -0.19734323 -0.088540986 0.007963466
000120 9e 75 03 be db fd 28 3e 77 6c 60 be 2e b8 12 3d
       -0.12837836 0.16503088 -0.21916376 0.03582018
000130 eb 3d f2 3d fc 7b bd bd f7 b8 c2 be 5e bc c4 be
       0.11828216 -0.09252164 -0.38031742 -0.38424963
000140 7e ca e8 3d 27 4c f0 3b 37 ae 0a 3e a6 e7 0f 3e
       0.11366747 0.007333297 0.1354302 0.1405321
000150 d2 1b a7 3d 32 25 72 3d a3 7f 98 3d 77 91 56 bd
       0.08159603 0.059117503 0.0744622 -0.05238482
000160 d6 dc 67 3d 83 d8 4e bf 77 7c 9d bd e6 93 17 be
       0.05660709 -0.8079912 -0.076897554 -0.14802513
000170 c6 a0 8e 3d 1d c5 52 bd fe e3 3e 3c 6f 9f 7c bd
       0.06964259 -0.051457513 0.011651037 -0.061675485
000180 0e 57 35 bd a6 9a f9 3c 64 7e ad 3d d5 71 1a 3e
       -0.044272475 0.03046925 0.08471373 0.15082486
000190 4f 09 40 3e c9 6f d9 3e 5f d6 35 3c a9 20 41 3e
       0.18753551 0.42468098 0.011098473 0.18860115
0001a0 ae 2a 99 be 69 7f a1 be 99 67 2e be 96 9a b2 3c
       -0.29915375 -0.3154252 -0.17031707 0.021802228
0001b0 b5 e7 8b bd 81 46 92 3d be 41 f2 3c ac 6c 6f bc
       -0.06831304 0.07142354 0.029572364 -0.014613312
0001c0 ac b6 1c be 1c ec f8 bb 25 27 b7 3e 0f ea 61 be
       -0.15304059 -0.007596506 0.35772052 -0.22061943
0001d0 80 5d c9 3d 72 96 5c 3e 7b 74 c0 3d 52 fa fa 3d
       0.09832287 0.21541765 0.09397217 0.12254776
0001e0 56 4f d2 bb ea 4b 3d be 3b 01 5b be ca 23 13 3e
       -0.006418149 -0.1848599 -0.21387188 0.14369121
0001f0 f0 a4 81 3e ee ca 78 be 4d de b2 be 8e f9 55 be
       0.2532115 -0.24296162 -0.34935227 -0.20895979
000200 67 33 cb bd 44 39 c5 be d4 fa 35 be 72 7f 24 3d
       -0.099219136 -0.38520253 -0.17771465 0.040160604
000210 39 9f da 3d 5a 8a 7f 3e 03 3e 8b be 28 c1 82 be
       0.106749006 0.2495512 -0.2719575 -0.25537992
000220 70 97 7c bf 1d 02 ed be 09 b0 54 3d dd 7a f0 bd
       -0.98668575 -0.46290675 0.051925693 -0.11742184
000230 90 6c 99 3e 39 e5 97 3e af 71 fe bd 17 cb 91 3b
       0.2996564 0.2966707 -0.12424027 0.004449259
000240 c6 7a 95 3e 77 84 2d be c4 4c 49 be de cf 44 bd
       0.2919523 -0.16945063 -0.1965819 -0.0480498
000250 d7 7b 26 3d cd 24 61 bc 0d 83 17 3e b2 4d 09 bd
       0.040645447 -0.013741684 0.14796086 -0.03352136
000260 91 42 0c 3d 1c 4a ba 3c b9 a5 7f 3d 0c 7d 30 bd
       0.03424317 0.022740416 0.062413905 -0.043088004
000270 6b 45 19 be 1b 02 7e bd 96 45 a1 be 10 00 56 bd
       -0.14967887 -0.062013727 -0.31498402 -0.052246153
000280 7a ab b6 ba e9 8a 21 3e 86 63 8c 3e 15 5e 46 3e
       -0.0013936602 0.15775646 0.2741968 0.19371827
000290 80 a1 fd bd 04 51 3d be e6 8e 2e 3c fa d9 b7 bd
       -0.12384319 -0.18487936 0.010654187 -0.089771226
0002a0 e1 b7 73 be 81 4d aa be 37 ca 1d 3c 9c dc 01 3d
       -0.23800613 -0.33262256 0.009630731 0.03170453
0002b0 f5 fe 96 be 26 8c fc 3d 9d 6a 3e be 14 a3 90 be
       -0.29491392 0.12331419 -0.18595357 -0.2824942
0002c0 fa 32 61 3d 19 ca 0e 3e 9d 64 3c 3d 09 28 d2 bd
       0.054980256 0.13944282 0.04599439 -0.10261542
0002d0 f0 df d1 be 78 36 9c 3e bb 86 cd bd 18 c2 82 3e
       -0.40991163 0.30510306 -0.100354634 0.25538707
0002e0 51 01 33 3e 1c 57 31 3e a2 a0 50 be b9 7c d7 bc
       0.17480971 0.17318386 -0.20373777 -0.02630459
0002f0 90 3d 80 3d af db 21 bd 64 27 56 3d 8e 0e 31 3d
       0.06261742 -0.039516147 0.05228366 0.04322677
000300 f2 43 8a 3d fa da 88 3e ea 77 98 3e c3 67 16 be
       0.06751241 0.26729566 0.29778987 -0.1468802
000310 aa f2 5e bd a0 bf b9 bc 41 fa 29 3a ed f9 fc 3b
       -0.05443064 -0.022674382 0.0006484129 0.007720223
000320 ff c1 8a 3e 7e a0 10 3e f9 5e d2 bc 69 9c 9b 3d
       0.27101132 0.14123723 -0.025680052 0.07598192
000330 44 5d f4 bd d6 6e 2b be 1a d2 99 3e af e4 1a be
       -0.119318515 -0.167415 0.30043107 -0.15126298
000340 3f d7 e8 be 72 32 a4 bd 3d a0 a0 be 73 d6 f9 3d
       -0.4547672 -0.08017434 -0.31372252 0.12199106
000350 e3 aa 20 be 83 97 5c be 82 d9 4f 3c 85 17 9c 3e
       -0.15690188 -0.21542172 0.012686135 0.30486694
000360 db 08 83 bf 2f d0 80 bd a5 63 36 3d 31 e7 33 bd
       -1.0237077 -0.06289708 0.044528622 -0.043921653
000370 a3 c2 83 bc c0 1e 56 3d a9 eb 87 3d a6 6e 6c bc
       -0.016084021 0.05227542 0.066367455 -0.0144306775
000380 88 df bf bd 83 5d df 3d c7 fe b3 3d 16 66 65 3e
       -0.09368807 0.10906508 0.08788829 0.22402224
000390 3d 9f 2d 3e d8 7f 21 bf a1 41 d3 3d 31 e1 a1 bd
       0.16955276 -0.630857 0.10315252 -0.0790428
0003a0 07 7b 8a 3d e9 2d 82 bd 96 8b 06 3d 04 0b ab 3c
       0.06761747 -0.06356413 0.032847963 0.020879276
0003b0 dd 21 0c bf 3d cd d6 be 0e 2b 05 3e 0c 9f 46 3c
       -0.5473917 -0.4195346 0.13004705 0.012122881
0003c0 bd c4 38 3d ca c7 e0 bc 4c cc 04 bd 87 7b a5 be
       0.0451095 -0.027439017 -0.032421395 -0.32320806
0003d0 a0 e3 89 be ed 96 3e bc 54 d3 eb 3d c5 8a 2f 3e
       -0.26931477 -0.011632663 0.11514917 0.1714278
0003e0 3b 95 65 3d 7d 2b b0 3d 99 a1 8e 3d 5f ed 90 bb
       0.05605052 0.08602045 0.06964416 -0.004422828
0003f0 2e 61 d7 bd c9 24 2b bd 24 56 99 3e 94 ff 48 3e
       -0.105165824 -0.041783128 0.29948533 0.19628745

fc1.bias f4 [256]
000000 69 96 7e 3e 9d 25 e8 3e 2e ee 68 3e 5d ab 30 bb
       0.24862064 0.45341197 0.22747108 -0.002695761
000010 1a bb b3 3c 7c 2e 11 bd ba 3f 8d 3e 81 ba 94 3e
       0.021939803 -0.03544472 0.27587682 0.2904854
000020 90 8b aa bc 5a 8d 61 3e 96 c1 27 3f 68 cf ec 3c
       -0.020818502 0.22026578 0.65529764 0.028907493
000030 a5 af dd be f4 b3 43 3e db 30 37 3d b8 89 c3 3c
       -0.4329807 0.19111615 0.044724327 0.02386938
000040 9c 05 4f bc 5f b1 8a bd fc a9 94 bd a9 02 90 3e
       -0.012635615 -0.06772112 -0.072589844 0.2812703
000050 3f 4b 80 3e 69 54 a6 3d d8 88 b8 3e ea a2 6d 3e
       0.25057408 0.08121569 0.36041903 0.23206678
000060 b4 23 5c bc 50 d3 43 3e 7f 67 36 bd 8d dd a9 bc
       -0.013436247 0.19123578 -0.044532295 -0.020735526
000070 71 a7 11 3f 51 d5 3e be af 4a 13 bb 6f 63 76 bd
       0.5689612 -0.18636061 -0.0022474935 -0.06015342
000080 4c 5f ea 3e af 4a 35 3e d7 f5 d6 bd 67 4c 55 bb
       0.4577583 0.17704271 -0.10496109 -0.003254676
000090 07 a5 56 3c 09 0c a8 3e e7 50 c8 3c 33 32 0d 3e
       0.013100869 0.32821682 0.02445264 0.1378868
0000a0 4d a7 75 3e c2 a2 0e bd 1c f4 24 bd b3 d2 a4 bd
       0.23989601 -0.034823187 -0.040271863 -0.08048
0000b0 6f a9 cb 3c a9 5f 32 3e b1 5d 81 3e cb 7b bb bd
       0.024861066 0.17419304 0.25266793 -0.09154471
0000c0 df 97 90 3a c9 27 09 be 40 21 b1 3d 40 0a 1e 3e
       0.0011031589 -0.13394083 0.0864892 0.15433598
0000d0 f5 73 f8 bd 32 77 2b bc a6 07 bb bd ae e5 99 bd
       -0.12131492 -0.01046543 -0.09132318 -0.07514511
0000e0 94 e9 c5 3d 7e 46 2d bd 07 f1 b8 bd 72 d7 ae 3b
       0.09663692 -0.042303555 -0.09030347 0.0053357417
0000f0 af 2c 58 3d 2a e9 df bc a0 9d a3 bd 08 91 39 3d
       0.05277699 -0.027332861 -0.07989049 0.04530433
000100 ba 47 e9 3e 0b c2 97 3e 23 76 9b 3d fe 55 88 ba
       0.45562536 0.2964023 0.07590892 -0.0010401604
000110 01 91 f3 3d 32 ef b0 bd 81 92 1d 3d a3 5e c5 3c
       0.11892892 -0.08639373 0.038469795 0.024092978
000120 2b a2 b5 bc ed 03 81 3d ea 7d 5b bc 00 50 00 be
       -0.022172054 0.06299577 -0.0133967195 -0.12530518
000130 67 63 f2 3e 07 b8 03 bd 47 da e2 3d 06 98 09 bd
       0.47341463 -0.032157924 0.11076789 -0.033592246
000140 ec e3 18 3e 6f 9d 1f bd 34 85 05 bd ae 84 92 bd
       0.14930695 -0.0389685 -0.032597736 -0.07154213
000150 71 55 c3 3d 1d 0e 05 3e e3 db 9d bd b0 3b 7e 3e
       0.09537781 0.12993665 -0.07707956 0.24827456
000160 2b de 87 3d a9 bf 76 3e d5 02 8e 3e ca 00 ca bd
       0.06634172 0.2409655 0.27736536 -0.09863432
000170 fa 5e 8d 3e 17 a5 c2 bc 49 f7 3e bd 99 96 da bd
       0.27611524 -0.023760362 -0.04662255 -0.106732555
000180 ef 99 71 3e 91 22 17 3e f6 db c3 3d f2 d1 02 be
       0.23593877 0.1475928 0.095634386 -0.127754
000190 e5 7a 67 3e c5 81 9e bd 21 8a 54 3e aa a1 0e 3d
       0.22605474 -0.07739595 0.20755817 0.034822144
0001a0 d1 b6 07 3d 61 bb d7 3e 0a 35 59 3e f5 68 93 3e
       0.03313333 0.42135146 0.21211639 0.28791013
0001b0 8f 8f ab 3d 8d 44 d0 3a 20 9c ae bd aa d7 c6 bc
       0.08376991 0.001588957 -0.08525872 -0.024272759
0001c0 91 e1 e6 3c c5 f6 61 3e 98 1a e9 3e 4a 53 cf 3c
       0.02818373 0.22066791 0.45528102 0.02530827
0001d0 a2 7c 1c bc 58 42 28 3e c6 06 4d bd c1 92 6a 3e
       -0.009551199 0.16431558 -0.050055288 0.22907545
0001e0 19 f1 4d 3c 82 2d 69 bd b1 cb 83 bd 40 f2 9e bd
       0.012569689 -0.056928165 -0.064353354 -0.07761049
0001f0 75 3e 20 be 50 60 97 bd 64 66 8c bd 43 26 2a 3e
       -0.15648825 -0.07391417 -0.06855467 0.16616158
000200 1f 24 49 3e 4b 9b 1b 3e f1 05 b2 3b ed eb 14 3e
       0.19642685 0.15195958 0.005432837 0.14543124
000210 de a6 20 bd 49 e6 43 bd 9e 41 a1 bd 19 67 32 bd
       -0.039221637 -0.04782704 -0.078738436 -0.043555353
000220 ba 30 75 3e 13 14 cf bd 58 c1 26 3e b9 06 62 3e
       0.23944369 -0.10111251 0.16284692 0.22072877
000230 eb 98 25 3c cd 7a c1 3d 0b 92 7c bd 14 f3 64 3d
       0.010107259 0.094472505 -0.061662715 0.05589588
000240 05 a1 ac 3e 60 fd 95 bd b5 2c 93 3d 53 10 c9 3c
       0.33716598 -0.07323718 0.071862616 0.024543917
000250 3a 34 59 3e 9a ca 32 3c c2 7d 75 bd 5e 5e 9b bc
       0.21211329 0.010912562 -0.059934385 -0.018965896
000260 c0 c9 c0 bd 96 e5 92 bd 41 2f e5 3c 58 fd cd 3c
       -0.09413481 -0.07172696 0.027976634 0.025145218
000270 06 a2 d3 3c db 58 7b 3e 3f 64 2d bd b7 8e a8 3d
       0.025834095 0.24545614 -0.04233193 0.08230346
000280 51 d0 b9 3d e3 18 60 3e f6 27 a1 3e 28 3e 9c bd
       0.09072936 0.21884494 0.314758 -0.07629043
000290 64 22 2d 3c 42 d0 8d bd 3e f6 a9 3e e0 30 82 3d
       0.010567281 -0.06924488 0.3319568 0.063569784
0002a0 ba a2 2a 3e 1d 1b b4 3c 3b da 28 3e 30 b9 9c bc
       0.16663638 0.021985585 0.16489498 -0.019131273
0002b0 8c 58 f5 bd af 86 2b 39 4f e4 53 bd b1 5b 6f bc
       -0.119797796 0.00016358004 -0.051731404 -0.014609263
0002c0 1a e1 86 3d 6f 62 0f 3e e3 29 35 bc 0f fd de bd
       0.065859035 0.14002393 -0.01105735 -0.10888111
0002d0 0f 6c 76 3e dd ec 25 3c b8 1f 89 3e 98 f9 a1 3e
       0.24064659 0.010127273 0.26782012 0.31635737
0002e0 9a 9e 58 3e bd cb 72 3d c4 07 b8 bd e2 e1 b4 bc
       0.21154252 0.05927633 -0.08985856 -0.022080366
0002f0 04 20 3d bc ba 91 01 3f 6f 2c a7 3d 1d dc 83 3e
       -0.011543278 0.50612986 0.08162772 0.2575387
000300 01 17 23 3d 61 c5 6c 3d 07 c0 9c bd 92 26 be bc
       0.03981686 0.057805423 -0.07653814 -0.023211751
000310 0c 5a 8a 3d c8 8a ca 3d fc 5d e8 3e d3 0d 3b 3d
       0.06755456 0.09889752 0.45384204 0.04566748
000320 1f ec 1f 3c 1b 19 56 3e a1 15 17 3f 00 17 ac bd
       0.0097608855 0.20908014 0.5901738 -0.084028244
000330 bc 5f 02 3e 7c f8 d7 bc e8 41 85 3e 70 86 8c bd
       0.12731832 -0.026363604 0.26026845 -0.068615794
000340 b5 02 c8 bd 7b a3 bf 3d 5f 16 80 bc c5 4c 9f 3c
       -0.09766141 0.09357353 -0.015635667 0.019445786
000350 87 5f 6d 3e 12 19 9c 3d f3 8d 38 bd a3 6e 9f 3e
       0.23180972 0.07621969 -0.04505725 0.31139097
000360 f0 e2 8f bd c2 3d 6e 3d 72 08 12 bc cb 7f 5b 3e
       -0.07025707 0.058164366 -0.008913146 0.21435468
000370 91 c6 ad bd 0f 1d 01 3f 3f 8f b0 3c 8b 92 d9 3c
       -0.08485139 0.50434965 0.02155268 0.026559135
000380 17 d3 44 3e a1 0f 7b 3d 88 7a 45 3e f6 dc 82 3d
       0.1922115 0.0612942 0.19285023 0.06389801
000390 b8 f1 b1 bd 7a cd 25 3d a2 7e 81 bd 06 90 e7 3c
       -0.08688682 0.04047916 -0.063229814 0.028266918
0003a0 7c df 99 bc b8 5c 9e bd 24 0d b6 3d 23 34 98 bd
       -0.018783323 -0.077325284 0.08889225 -0.07431819
0003b0 6d 75 99 bb 72 62 00 3c 71 63 8b bc 26 e3 c7 3c
       -0.0046831877 0.007835971 -0.01701519 0.024400305
0003c0 7d 32 0d 3d fc 69 51 be 23 21 88 bd f4 8b 50 bd
       0.034471978 -0.20450586 -0.06646945 -0.05091472
0003d0 c7 6e e7 bb 21 2a b3 bc 87 c3 dd 3e 5d a4 6b bd
       -0.0070627662 -0.021870675 0.43313238 -0.057529796
0003e0 cd d4 32 3d 75 d6 e8 3d 95 cf ae 3c 36 a7 ab 3d
       0.043659974 0.113690294 0.021339217 0.08381502
0003f0 42 f4 94 3d d3 d1 8b 3b 3e 18 3c bd ba b3 a4 bd
       0.07273151 0.0042669564 -0.045921557 -0.080420926

fc2.weight f4 [2, 256]
000000 ea 68 8e bc 0a bb 8b 3e ae 88 af be a4 fc 9a 3c
       -0.017384011 0.27291137 -0.34283966 0.018919297
000010 de 86 ce bc 64 e3 ec bb a4 e6 c8 3c bb 57 09 3b
       -0.025210794 -0.0072292555 0.02452404 0.0020956832
000020 c3 75 41 bd f7 22 28 be 2a 4a 30 3e ea 31 94 3c
       -0.047231447 -0.16419588 0.17215791 0.018090207
000030 e6 2d 13 be 14 54 ac bb e3 fc 8e bc 55 0c ba 39
       -0.14372978 -0.0052590463 -0.01745457 0.00035485873
000040 40 a8 d7 bb eb 76 7e b9 f1 a9 a2 bb 0d 28 0f be
       -0.0065813363 -0.00024267628 -0.0049641063 -0.13980122
000050 16 27 38 bf 49 8b f2 ba 35 c4 cd 3d 26 dd 7f bc
       -0.7193464 -0.0018504645 0.10047189 -0.015616691
000060 63 16 04 bb 01 8a 21 3a 74 d7 34 bd cd ca 93 bc
       -0.0020154945 0.0006162227 -0.044150785 -0.018041039
000070 ad 9c 3e 3e 0f ff 3d 3f c0 ca 82 3c eb 6c c6 3c
       0.18614455 0.74217314 0.01596582 0.024221858
000080 0a 62 15 3e 89 19 71 3c 98 50 94 bc 18 78 6d 3b
       0.1458818 0.014715561 -0.018104836 0.0036234912
000090 57 76 45 bd 7c ec c8 3d f7 2a 67 3b 23 1e 70 be
       -0.04820856 0.09810731 0.0035273412 -0.23448996
0000a0 71 2b 8d bb 22 74 42 bc fe a8 1f 3b 40 d7 1e 3d
       -0.004308157 -0.0118685085 0.0024362202 0.038779497
0000b0 76 56 6d bc 14 d0 1e 3e 08 f1 d9 3b bd 99 6e 3b
       -0.014485946 0.15509063 0.0066510476 0.0036407553
0000c0 85 a6 ab bd d8 a5 4c 3e d1 bc 95 39 97 d3 58 3e
       -0.083813705 0.1998514 0.00028560174 0.21174465
0000d0 9f 37 20 3d fd c9 b2 bc b9 96 f4 bc 70 84 db 3c
       0.039115544 -0.021824831 -0.029857026 0.02679655
0000e0 e7 67 80 3c f3 33 5c bc 47 ca 98 3c 73 13 0e 3d
       0.015674544 -0.01344012 0.01865114 0.034686517
0000f0 2f 66 30 bb aa 1f ef bc 30 16 2f 3c 9c a5 0d bc
       -0.0026916375 -0.029189903 0.010686442 -0.008645441
000100 47 a6 2b 3e 11 66 19 bf c1 1e 48 bb eb cf 16 3d
       0.16762649 -0.59921366 -0.003053591 0.03681938
000110 21 18 bd 3b 36 84 d7 3c 2d 26 4b bb d7 66 85 bc
       0.0057706987 0.02630816 -0.0030998096 -0.01628439
000120 e2 e0 34 3d d4 88 15 3d 1c 2e 39 3d 73 fc df bb
       0.044159777 0.036507443 0.04520999 -0.006835514
000130 6c ef db 3d 73 07 55 bc c4 ee da bc d6 bf 88 bc
       0.107390255 -0.013002264 -0.02672518 -0.016693037
000140 a7 3c 85 3e 82 20 12 3c 81 89 20 ba 0f 35 d9 3b
       0.26022837 0.008918883 -0.00061240053 0.0066286395
000150 b9 d2 90 3b 0f 2c d1 3b db b2 b3 3c 75 89 4e ba
       0.0044196513 0.006383426 0.02193587 -0.0007878759
000160 0c 06 c7 bd 13 13 5f 3d 0e d2 3e 3e 7c b4 77 3c
       -0.0971795 0.05446155 0.18634817 0.015118714
000170 b4 53 c7 3c cc 35 a6 3c 12 dd 89 bc 9f d4 57 bc
       0.024331905 0.020289324 -0.016829047 -0.013173251
000180 91 e9 82 ba a2 d1 86 bb e8 55 4a 3d a6 b9 6e bc
       -0.0009987821 -0.0041143456 0.049398333 -0.014570629
000190 14 1e 4c bb 1f 3e a3 3c 8a 2c b0 bc 50 9b 68 3c
       -0.0031145858 0.019927083 -0.021505613 0.014197186
0001a0 90 02 1c 3d e9 41 9e 3d de 3b 38 3c 60 ba 0c 3d
       0.03808838 0.07727415 0.011244742 0.03435743
0001b0 b2 1e 5b 3b f0 a7 7e 3c 02 b5 2c 3c a3 20 0d bc
       0.0033435044 0.015542969 0.0105412025 -0.008613738
0001c0 bb 8f 8f bc 14 a1 95 bd 12 51 bf 3d 55 94 9f 3c
       -0.01752459 -0.07306114 0.09341635 0.01947991
0001d0 df 7a bc 3c a7 4c aa be e4 b6 20 bc 37 bb 80 bd
       0.023007808 -0.33261606 -0.0098092295 -0.062857084
0001e0 9c 2b 44 3c 2d 05 4d bd 0d 47 69 bb 4e 7e 29 bd
       0.011973288 -0.050053764 -0.0035595328 -0.04138022
0001f0 64 6c 3b 3f 44 f6 4a bd dd dc 91 bc 1e c6 73 be
       0.73212266 -0.049551263 -0.017805511 -0.23806044
000200 87 41 e0 bd 24 79 ca 3d 0a 28 54 3b bc d2 21 3e
       -0.10949998 0.09886387 0.0032372498 0.15803045
000210 6a 66 9c 3c 40 fd 8c ba a1 8f 53 bc f6 1b 26 bd
       0.019091804 -0.0010756627 -0.012912662 -0.04055401
000220 df 43 76 bc 59 e2 f2 3c f1 b1 12 be 21 b0 90 be
       -0.01503083 0.029648947 -0.14325692 -0.28259376
000230 cb c7 d1 bc 0d f8 ad 3c 52 29 1d bc 77 0c 84 3c
       -0.025607964 0.021236444 -0.009592371 0.016119225
000240 32 f3 1d be 68 47 b0 b9 34 60 5c 3b 1d 2f 11 bd
       -0.15424803 -0.00033622538 0.0033626677 -0.03544532
000250 e1 51 72 3c 66 a2 7a 3c c3 2e e6 3c bb 8d c0 bc
       0.014790029 0.015297508 0.02809847 -0.023505082
000260 bc 0f bb bd 4c 12 ed bc 2b a5 0d bd e0 7f 18 bd
       -0.091338605 -0.028939389 -0.034581345 -0.037231326
000270 03 f1 13 3d 14 07 3c ba 88 84 1e bb 83 fa 76 bc
       0.03611852 -0.00071726856 -0.0024187881 -0.015074375
000280 b1 81 1b 3e 91 ff 14 bd 1f 3a a4 be 73 ce 7b bc
       0.15186192 -0.03637654 -0.32075593 -0.015369046
000290 ba f7 ae 3c e5 5a 4a bc 9e f0 04 bb 6d fa 06 3c
       0.02135836 -0.0123507725 -0.002028502 0.008238417
0002a0 4e 40 37 3b 49 c0 fd bc 5a b6 b6 bc dd f7 18 3d
       0.0027961913 -0.030975478 -0.022303749 0.037345756
0002b0 da 77 b9 3c bf 32 03 3c 47 18 91 bc 39 ab 11 bd
       0.022640157 0.008007704 -0.017711772 -0.03556368
0002c0 83 57 fb bc ea 36 3d bd 21 9b eb 3c d1 15 ff 3b
       -0.030681377 -0.04619495 0.028760495 0.007784583
0002d0 a7 d6 13 3e 5f 25 a1 3c a5 c2 98 3c 9e 6d 94 bc
       0.14437352 0.01967114 0.018647501 -0.018118676
0002e0 d3 0a 72 3c 8d 72 d9 3d 8c ab a7 3c 8b 23 e8 bc
       0.0147730885 0.10617552 0.020467542 -0.02833726
0002f0 e1 43 ea bb cf 0e 68 3e 61 26 dd 3d 06 a3 7a 3c
       -0.007149205 0.22661899 0.10798336 0.015297657
000300 2a 34 d2 bc 26 a8 a3 3c 75 5e 1d 3c 79 ea 3e 3a
       -0.02565964 0.01997764 0.00960504 0.0007282864
000310 98 0c 0d 3e a4 c4 dd 3c 87 76 d6 3d 31 5b c4 bc
       0.13774335 0.027071305 0.10471826 -0.023969265
000320 0d 72 26 3f d3 7c 64 3c 6d 89 09 3d 6f 57 2a bd
       0.6501778 0.013945776 0.033578325 -0.04158729
000330 6d ce 38 bc 6c af c3 3b 09 c1 12 ba 7d 26 a0 bd
       -0.0112796845 0.0059718397 -0.00055982225 -0.07819841
000340 a4 7f 33 3d b1 22 79 bd 5f d1 45 bf 7a bc e7 bc
       0.0438229 -0.0608241 -0.772726 -0.028288115
000350 6e f8 24 bc 26 d0 0c bf 68 df d4 bc fd 1f 7d 3b
       -0.010068996 -0.5500511 -0.025985435 0.0038623803
000360 ab 3e 02 39 d9 70 a6 3e d4 cf 51 3b 64 f6 84 3b
       0.00012421112 0.3250797 0.0032014744 0.0040576924
000370 15 94 25 bc 82 64 1e 3d 3c 98 2c bc 08 f4 cd 39
       -0.010106106 0.03867007 -0.010534342 0.00039282464
000380 bf e9 ca bd 49 5e 68 ba 0a 05 80 bd ec 9d a8 bb
       -0.09907865 -0.0008864147 -0.06250961 -0.005145779
000390 28 9b 53 3f b4 eb ab be dc 04 40 3d f9 15 3a 3c
       0.82658625 -0.33578265 0.046879634 0.011357778
0003a0 2b 04 0a 3c 72 69 3f bb 68 a5 9d 3c 70 ab 7e 3c
       0.008423845 -0.0029207137 0.01924391 0.015543804
0003b0 13 0b 1c bc 29 93 cd 3c 01 94 3e 3c 2c c8 e2 bc
       -0.009524125 0.025094585 0.011631967 -0.02768334
0003c0 6c 2f 0d bc 29 35 09 be b8 51 97 bc a7 c3 99 bc
       -0.008617263 -0.13399185 -0.018471584 -0.018770052
0003d0 11 94 b3 3c 09 67 a3 bc ef 1b 03 3e a0 93 2f bd
       0.02192119 -0.019946592 0.12803625 -0.042865396
0003e0 4b 61 7c bc c8 cf 8a bd 5c 30 2a bc 97 06 a4 3c
       -0.015404056 -0.067779124 -0.010387506 0.020022674
0003f0 80 6b 79 3c 5f 35 a6 bd ea 2e be bc 52 09 c1 3a
       0.015223384 -0.081156485 -0.02321573 0.0014727509

fc2.bias f4 [2]
000000 0b 76 d5 3e e5 ee 14 be
       0.41691622 -0.14544256
