DQN/model/model33000.pkl (torch, 580039 bytes, 10 tensors)

conv1.weight f4 [32, 4, 8, 8]
0.020457005 0.09704005 0.012704422 0.028576197 -0.038403314 -0.1549357 -0.08880556 0.021133255
-0.09571364 -0.030764977 -0.19570735 -0.23738673 -0.4130099 -0.22045521 -0.06684953 0.08279947
-0.04014445 0.10053196 0.012565698 -0.17562117 -0.32334208 -0.28583232 -0.120040104 -0.00403417
0.3913516 -0.077153064 0.024514658 -0.24428974 -0.19161388 -0.0023174228 0.16540752 0.18556237
0.28651404 0.11072557 -0.040864937 -0.3125803 -0.7418449 -0.16890657 -0.23676008 0.008243267
0.14130849 -0.11860906 -0.32927224 -0.6401179 -0.86676353 -0.008934087 0.045418072 0.06435531
0.12978153 0.10096928 -0.2673189 -0.455833 -0.40399823 -0.62279695 -0.22617145 -0.17001866
-0.015884582 -0.17974767 -0.80957186 -1.0260351 -0.61789817 -0.731951 -0.74695885 -0.9297359
-0.017110003 -0.12909058 0.03801204 -0.046579223 -0.05935481 0.17064719 0.016157337 0.0142487455
0.041192096 -0.009848149 0.107497044 0.23528637 0.28281772 0.28311595 0.15060338 0.05889336
0.049077578 0.057059612 0.054430086 0.20007008 0.31492677 0.21680014 0.10318188 0.13366641
-0.06747975 0.012294386 0.06996724 0.24132122 0.43263942 0.3260604 0.079380155 -0.04970993
-0.047174975 -0.12322132 0.12938245 0.18796547 0.20578234 -0.011669231 -0.016143195 -0.191582
-0.104095496 0.039258834 0.23742089 0.2844097 0.18307059 0.03570132 -0.12673005 0.07658233
0.02543852 0.09855264 0.16960756 0.5691468 0.3764905 -0.0424906 0.108615495 0.07253548
0.0710449 0.14758144 0.17060435 0.6695967 0.5834764 0.043722916 -0.32013816 -0.24598138
-0.10678998 -0.13783032 -0.098533385 -0.11550416 -0.016366461 -0.010022122 0.016343407 0.029441329
-0.03306247 -0.0020637522 0.037367884 0.027013252 -0.0025641464 -0.03646091 -0.040700104 -0.14884126
0.10110641 0.022909883 0.040637434 0.09726293 0.06903539 0.15046029 0.16519536 0.1423547
-0.04390389 -0.09913683 -0.06993116 -0.011696245 0.06580705 0.091869205 0.015963204 0.017963879
-0.03677277 0.016088512 -0.015805347 0.029587185 -0.0139215905 -0.023013497 0.056676317 0.1173898
0.03196256 0.09003896 0.030537507 0.08010925 0.1307147 0.14686146 0.07293474 0.12283736
-0.16603467 -0.02229262 0.026007982 0.037848175 0.013392718 0.02256263 -0.108078636 -0.11578863
-0.019735128 -0.0065387157 0.1880765 0.2964296 0.354619 0.13174677 -0.06702545 -0.039987892
0.08033923 0.022093741 -0.042919885 -0.104635805 -0.053897433 -0.005478723 -0.07271691 -0.15090999
0.048316047 0.089146316 0.049254116 0.0065481015 -0.04010534 0.03368986 -0.030957479 -0.025519168
0.11680511 0.03689823 0.079742804 0.104170084 0.028820856 0.06099598 0.076529026 -0.10168099
0.047848187 0.020294538 -0.0060468107 0.042132135 0.059231095 0.03672266 0.031726927 -0.043419328
-0.037704334 0.040428553 -0.11470768 -0.0647076 -0.049939655 0.015554953 0.008278054 0.15257819
0.10613759 0.09717016 -0.032075595 0.03567597 -0.026749732 0.0684487 0.10688854 0.12767567
0.012653033 -0.05234126 -0.051366184 -0.09553506 -0.035018303 -0.04782691 -0.059246846 -0.017234566
-0.033618923 -0.15990044 -0.11554345 0.028626844 0.00861818 -0.038831044 0.025332732 -0.15748967
00000000: 7395 a73c efbc c63d 3526 503c a118 ea3c
00000010: cb4c 1dbd 77a7 1ebe b0df b5bd a61f ad3c
00000020: 8305 c4bd d506 fcbc 8267 48be 8215 73be
00000030: 0976 d3be 03bf 61be 68e8 88bd c592 a93d
00000040: 826e 24bd b3e3 cd3d 5be0 4d3c 09d6 33be
00000050: 188d a5be 9d58 92be 96d7 f5bd 1231 84bb
00000060: 3d5f c83e 6d02 9ebd f7d2 c83c 1727 7abe
00000070: 6e36 44be e7df 17bb 9760 293e 1004 3e3e
00000080: f8b1 923e 16c4 e23d fe61 27bd 860a a0be
00000090: 8ce9 3dbf d8f5 2cbe 3c71 72be c50e 073c
000000a0: 2cb3 103e 4fe9 f2bd 5f96 a8be c4de 23bf
000000b0: 37e4 5dbf 4760 12bc 4d08 3a3d b7cc 833d
000000c0: 73e5 043e fbc8 ce3d 06de 88be f162 e9be
000000d0: dbd8 cebe 9f6f 1fbf 7d99 67be 5f19 2ebe
000000e0: 6220 82bc c60f 38be 1a40 4fbf 1e55 83bf
000000f0: 932e 1ebf 2461 3bbf b238 3fbf 2c03 6ebf
00000100: 472a 8cbc 5230 04be 83b2 1b3d dbc9 3ebd
00000110: 071e 73bd 23be 2e3e 645c 843c 9273 693c
00000120: 0bb9 283d 215a 21bc 6927 dc3d e9ee 703e
00000130: 7ccd 903e 93f4 903e c637 1a3e 2a3a 713d
00000140: 9205 493d 57b7 693d 15f2 5e3d 2cdf 4c3e
00000150: 153e a13e db00 5e3e 0651 d33d d9df 083e
00000160: d332 8abd 646e 493c fc4a 8f3d e91c 773e
00000170: ea82 dd3e 64f1 a63e 1092 a23d a49c 4bbd
00000180: 8c3a 41bd 765b fcbd d57c 043e 057a 403e
00000190: 9bb8 523e 4d30 3fbc bc3e 84bc 122e 44be
000001a0: 0530 d5bd dfcd 203d 761e 733e 269e 913e
000001b0: db76 3b3e 8c3b 123d 86c5 01be 32d7 9c3d
000001c0: 7164 d03c f7d5 c93d 9bad 2d3e 9bb3 113f
000001d0: 5dc3 c03e a00a 2ebd cd71 de3d 7b8d 943d
000001e0: fd7f 913d 971f 173e e8b2 2e3e b06a 2b3f
000001f0: b65e 153f cd16 333d 26e9 a3be 8be2 7bbe
00000200: b4b4 dabd 6423 0dbe dfcb c9bd 728d ecbd
00000210: f512 86bc d433 24bc 9ce2 853c f12e f13c
00000220: 836c 07bd 0440 07bb 110f 193d e54a dd3c
00000230: 3d0b 28bb 0958 15bd 27b5 26bd d869 18be
00000240: e110 cf3d 82ad bb3c 7073 263d c931 c73d
00000250: 6d62 8d3d 4312 1a3e f928 293e 6ec5 113e
00000260: 91d4 33bd 4008 cbbd 1138 8fbd 9ba1 3fbc
00000270: d9c5 863d ec25 bc3d 44c5 823c fc28 933c
00000280: 0b9f 16bd 0ecc 833c 377a 81bc d360 f23c
00000290: 6217 64bc cd86 bcbc 6d25 683d 106a f03d
000002a0: 2ceb 023d 5966 b83d cb29 fa3c 5210 a43d
000002b0: 13da 053e da62 163e cf5e 953d 2792 fb3d
000002c0: fe04 2abe 039f b6bc b10e d53c b006 1b3d
000002d0: 216d 5b3c 44d5 b83c 5558 ddbd 9722 edbd
000002e0: 90ab a1bc b942 d6bb 2097 403e 9fc5 973e
000002f0: 9f90 b53e a0e8 063e a444 89bd 58ca 23bd
00000300: e588 a43d effd b43c c3cc 2fbd 4c4b d6bd
00000310: 8ec3 5cbd dc86 b3bb 9aec 94bd 2688 1abe
00000320: 0ce7 453d 5892 b63d afbe 493d 7591 d63b
00000330: 7f45 24bd 61fe 093d 8a9a fdbc 930d d1bc
00000340: 8437 ef3d 9922 173d 3250 a33d 2057 d53d
00000350: b719 ec3c ecd6 793d 40bb 9c3d 1f3e d0bd
00000360: 76fc 433d bb40 a63c 5324 c6bb bf92 2c3d
00000370: 4e9c 723d 806a 163d 18f4 013d 77d8 31bd
00000380: dc6f 1abd 6998 253d dceb eabd 6b85 84bd
00000390: 868d 4cbd 34da 7e3c ada0 073c 753d 1c3e
000003a0: aa5e d93d 2601 c73d b361 03bd f720 123d
000003b0: 4122 dbbc d52e 8c3d 61e8 da3d 69bd 023e
000003c0: ab4e 4f3c ca63 56bd 5965 52bd e3a7 c3bd
000003d0: 5a6f 0fbd 26e6 43bd d2ac 72bd 812f 8dbc
000003e0: ffb3 09bd f1bc 23be 0ba2 ecbd d882 ea3c
000003f0: 4433 0d3c 4d0d 1fbd 9786 cf3c f944 21be

conv1.bias f4 [32]
0.07194949 0.1156049 0.010852626 -0.017933134 -0.047805365 0.12620932 -0.093889914 -0.0072988155
-0.113797076 0.1143418 0.068968646 -0.032678798 0.032175884 0.21521965 0.013900161 -0.07767058
-0.009796413 -0.005069976 -0.00814388 -0.004448659 -0.010094167 0.059920643 -0.041309685 -0.0074294135
0.023296174 -0.054880977 -0.0075664013 0.01077578 -0.07823357 0.1260267 -0.007913708 0.17758037
00000000: 415a 933d 43c2 ec3d 36cf 313c 82e8 92bc
00000010: 8fcf 43bd 043d 013e 5b49 c0bd e72a efbb
00000020: 710e e9bd 092c ea3d 6f3f 8d3d 34da 05bd
00000030: dcca 033d 8a62 5c3e 80bd 633c c111 9fbd
00000040: 2281 20bc 0b22 a6bb e96d 05bc 0ec6 91bb
00000050: 0162 25bc 596f 753d 5834 29bd 7072 f3bb
00000060: 9ed7 be3c e0ca 60bd 93ef f7bb e68c 303c
00000070: ec38 a0bd 250d 013e 7fa8 01bc a1d7 353e

conv2.weight f4 [64, 32, 4, 4]
-0.34609738 -0.26978558 -0.13813166 -0.23466459 -0.3046525 -0.25883004 -0.09277294 -0.07449397
-0.073300734 -0.20678414 -0.099888906 -0.10758139 0.25744486 0.19504267 0.115662225 0.2963697
-0.76646024 -0.2749799 0.11610777 0.022711083 0.27763745 0.431233 0.40094393 0.15379481
0.38264346 -0.22510429 -0.08183891 -0.078206494 -0.19817427 -0.103359506 0.19260094 0.07344796
-0.04856978 0.09502153 0.11179471 -0.20692945 0.11120724 0.008793828 0.02000312 -0.59910774
-0.124420114 -0.5418874 0.008298117 -0.26935986 0.46041685 0.55399966 -0.54097116 0.02791926
-0.31382397 -0.18189973 -0.37185007 -0.16132993 0.34482875 0.2280934 0.2631084 -0.3863948
0.5952215 0.29322532 0.096560225 0.0139477365 -0.01102694 0.0043808217 -0.18191436 0.20543209
-0.19202057 0.00063243764 0.097292535 0.07334552 0.39239573 -0.13018447 -0.2649056 0.049303807
-0.3794273 -0.66503525 -0.17101881 -0.3165632 0.14948139 0.14646927 -0.10018012 -0.359643
-0.52568877 -0.22995667 -0.010849381 -0.25315753 -0.20339209 -0.15893734 -0.1496046 0.17874
-0.41576362 -0.2034129 -0.13716945 0.20200412 -0.025624368 0.36578566 0.3789086 0.20185274
0.3551814 -0.094991386 0.022693539 -0.03670942 -0.25405553 0.08980345 -0.1349789 -0.073538505
-0.16677184 0.22328633 -0.24571285 -0.30780438 0.13102436 0.029434068 -0.6398384 -0.42218107
0.5458592 0.4289513 -0.40149376 0.18256716 0.29706976 0.17308773 0.19238733 0.030727101
0.18502893 0.24719487 0.092155024 -0.19197464 0.4112028 -0.1432573 -0.2971184 -0.08529093
-0.15186967 -0.03634956 -0.62898016 -0.1172036 0.24474901 0.07387826 -0.5023885 0.10473372
0.0142187 -0.2868021 -0.39897045 -0.74244624 0.4031029 0.28741026 0.2589206 0.3187448
-0.39250436 -0.033608407 0.10977779 -0.030416077 -0.058043282 0.23651147 0.39091492 0.24942839
-0.13255362 -0.25402144 0.17867258 -0.24034731 0.15892795 0.17796496 -0.027522115 0.20670025
-0.133837 -0.5032117 -0.009814208 0.24572466 0.14699785 0.26916772 -0.46594104 -0.30200002
0.28511184 0.1727881 -0.1918092 -0.21302384 -0.08063134 0.053566705 -0.2942008 -0.1228407
-0.16703314 -0.029553302 0.5060174 0.28054696 0.3133465 0.023005059 0.035317805 0.085427366
-0.06898101 -0.50038034 -0.21468736 0.22441274 -0.2119201 0.2879891 0.4304782 -0.043696545
0.4029736 0.25986186 0.31524175 0.3144781 0.14745751 -0.1545314 0.0068604923 0.27743417
0.16919905 0.7731855 -0.209511 0.25749218 0.03599827 0.10733662 -0.025606966 -0.22403824
0.16486904 -0.07510328 0.14805984 0.11460504 -0.03405079 0.19248626 0.16996203 0.27195325
-0.23698045 -0.0010624271 0.11710623 0.034310378 -0.048404124 0.10110692 0.17747997 0.08704569
-0.054453652 0.040300712 -0.22158113 0.22311592 -0.1728053 -0.21857558 -0.19623765 0.10610747
0.16619444 -0.020595191 0.12882514 0.12510122 0.18654491 -0.085010216 -0.20295879 -0.31424192
-0.21172191 0.124847054 -0.21157522 -0.07201953 0.07030252 -0.0985898 -0.033779997 -0.060685296
0.24120688 -0.23691927 -0.57957935 -0.185688 0.29243615 0.06815825 -0.26413235 -0.13594472
00000000: ad33 b1be 5621 8abe 6372 0dbe ea4b 70be
00000010: 6afb 9bbe 5f85 84be bdff bdbd 4b90 98bd
00000020: b21e 96bd 39bf 53be 8e92 ccbd a253 dcbd
00000030: d0cf 833e 44b9 473e 51e0 ec3d c5bd 973e
00000040: bd36 44bf 2aca 8cbe e9c9 ed3d 980c ba3c
00000050: 7f26 8e3e 92ca dc3e 8648 cd3e 637c 1d3e
00000060: d8e9 c33e bd81 66be 299b a7bd ba2a a0bd
00000070: 32ee 4abe 26ae d3bd 2e39 453e e26b 963d
00000080: 1bf1 46bd a69a c23d a0f4 e43d 50e5 53be
00000090: 9fc0 e33d fd13 103c 95dd a33c 205f 19bf
000000a0: f9cf febd 22b9 0abf d3f4 073c 89e9 89be
000000b0: c2bb eb3e ecd2 0d3f 167d 0abf efb6 e43c
000000c0: 89ad a0be ec43 3abe 2263 bebe ac33 25be
000000d0: 658d b03e 5191 693e 25b6 863e 8ad5 c5be
000000e0: 7060 183f a121 963e 5ec1 c53d 0c85 643c
000000f0: 57aa 34bc ff8c 8f3b c247 3abe ca5c 523e
00000100: 0aa1 44be 2cca 253a 4f41 c73d 2d36 963d
00000110: 18e8 c83e 144f 05be b5a1 87be caf2 493d
00000120: 4c44 c2be c03f 2abf 8e1f 2fbe 9214 a2be
00000130: a611 193e 0afc 153e 3c2b cdbd 2123 b8be
00000140: 8a93 06bf c379 6bbe 9ac1 31bc dd9d 81be
00000150: 0446 50be 78c0 22be f331 19be 9e07 373e
00000160: f8de d4be 794b 50be 2676 0cbe 2bda 4e3e
00000170: 32ea d1bc 4248 bb3e 4f00 c23e 7cb2 4e3e
00000180: 56da b53e d88a c2bd cde7 b93c 9e5c 16bd
00000190: 9113 82be dfea b73d e937 0abe 5b9b 96bd
000001a0: 3dc6 2abe 2ca5 643e 269c 7bbe 8998 9dbe
000001b0: 402b 063e b71f f13c 73cc 23bf 1e28 d8be
000001c0: 6ebd 0b3f 819f db3e 9790 cdbe e3f2 3a3e
000001d0: 8719 983e e93d 313e 2f01 453e 67b7 fb3c
000001e0: 3978 3d3e a720 7d3e c6bb bc3d 0095 44be
000001f0: 2c89 d23e 0bb2 12be e71f 98be 03ad aebd
00000200: b983 1bbe 47e3 14bd d804 21bf 7108 f0bd
00000210: 7c9f 7a3e 7c4d 973d 889c 00bf a27e d63d
00000220: 8df5 683c bad7 92be db45 ccbe f510 3ebf
00000230: 8163 ce3e 7027 933e 3e91 843e 8532 a33e
00000240: 55f6 c8be f8a8 09bd 2ed3 e03d 232b f9bc
00000250: cbbe 6dbd 1030 723e 0026 c83e 286a 7f3e
00000260: 23bc 07be 190f 82be f2f5 363e 9b1d 76be
00000270: 02be 223e 723c 363e 0f76 e1bc 3ba9 533e
00000280: 910c 09be 7bd2 00bf c6cb 20bc 3f9f 7b3e
00000290: 9b86 163e 5ad0 893e d38f eebe bf9f 9abe
000002a0: 2efa 913e 5def 303e a269 44be ec22 5abe
000002b0: 0b22 a5bd c368 5b3d 7da1 96be e893 fbbd
000002c0: bc0a 2bbe c419 f2bc 5b8a 013f daa3 8f3e
000002d0: f46e a03e 1b75 bc3c 67a9 103d 8bf4 ae3d
000002e0: ea45 8dbd ed18 00bf 01d7 5bbe 74cc 653e
000002f0: 9501 59be 4f73 933e a367 dc3e 26fb 32bd
00000300: 8e52 ce3e 9d0c 853e 5e67 a13e 4603 a13e
00000310: 1aff 163e 7b3d 1ebe fbcd e03b da0b 8e3e
00000320: 8442 2d3e 7cef 453f 0d8a 56be 04d6 833e
00000330: ec72 133d 4dd3 db3d b3c5 d1bc 486a 65be
00000340: 6ed3 283e c0cf 99bd 009d 173e 0cb6 ea3d
00000350: d778 0bbd 1e1b 453e 870a 2e3e 753d 8b3e
00000360: 01ab 72be 2341 8bba 64d5 ef3d 0a89 0c3d
00000370: 6743 46bd 2511 cf3d 4fbd 353e 0345 b23d
00000380: cb0a 5fbd 5c12 253d 2ae6 62be 8078 643e
00000390: dff3 30be 47d2 5fbe 86f2 48be e04e d93d
000003a0: e02e 2a3e 3fb7 a8bc bdea 033e 891a 003e
000003b0: a105 3f3e d619 aebd 6ed4 4fbe 51e4 a0be
000003c0: a1cd 58be d0af ff3d 2da7 58be fa7e 93bd
000003d0: c5fa 8f3d 73e9 c9bd e55c 0abd 2591 78bd
000003e0: f0fe 763e f79a 72be 505f 14bf ff24 3ebe
000003f0: 31ba 953e 8d96 8b3d 5b3c 87be 1835 0bbe

conv2.bias f4 [64]
0.11666734 0.08070818 -0.13185658 0.054961983 0.022130575 -0.003137432 0.06810016 -0.09686065
-0.012505896 -0.13246895 -0.058994047 0.023071354 0.017133068 0.04431549 -0.00999208 -0.07161104
-0.10401366 0.21231908 -0.040948875 -0.090327084 0.015715923 -0.030928956 -0.2206457 -0.08960077
-0.105385 0.26692462 -0.02034239 -0.033428356 -0.1745003 0.19556208 -0.19947453 0.17708388
0.0639579 0.05074358 0.016228817 0.00467036 -0.017880771 0.042547766 -0.14598055 0.018529836
0.14065935 0.032477733 -0.08011673 -0.05559101 0.09306747 -0.053755578 0.08972444 -0.02751172
0.029479712 -0.049995217 -0.19149555 -0.009315951 -0.04482919 0.12887833 -0.062033053 0.11167918
-0.07986342 -0.15520717 -0.03677178 -0.057826605 -0.04446292 0.18749732 -0.033116665 0.17679918
00000000: 49ef ee3d 554a a53d 6905 07be d11f 613d
00000010: 2e4b b53c 609d 4dbb 1978 8b3d e05e c6bd
00000020: 88e5 4cbc f1a5 07be bea3 71bd 2300 bd3c
00000030: a65a 8c3c 2984 353d d2b5 23bc cfa8 92bd
00000040: 1d05 d5bd 2c6a 593e 02ba 27bd 68fd b8bd
00000050: aebe 803c b95e fdbc f2f0 61be 9c80 b7bd
00000060: 17d4 d7bd 58aa 883e 15a5 a6bc 2cec 08bd
00000070: 35b0 32be 6d41 483e 0d43 4cbe 7a55 353e
00000080: 5cfc 823d 80d8 4f3d 4cf2 843c d209 993b
00000090: b27a 92bc 9146 2e3d ed7b 15be e2cb 973c
000000a0: 0109 103e 5f07 053d 3d14 a4bd 66b3 63bd
000000b0: 289a be3d cf2e 5cbd 72c1 b73d 4260 e1bc
000000c0: 707f f13c c9c7 4cbd 6917 44be eea1 18bc
000000d0: d09e 37bd aef8 033e 5f16 7ebd 0eb8 e43d
000000e0: 6f8f a3bd a1ee 1ebe 029e 16bd 97db 6cbd
000000f0: c01e 36bd 4cff 3f3e 57a5 07bd d80a 353e

conv3.weight f4 [64, 64, 3, 3]
-0.13903126 -0.15938139 -0.08825763 0.08492597 0.06085447 -0.052474935 0.11362054 0.118031904
0.16256352 0.075123735 -0.02117377 0.014532028 0.05027855 -0.008168186 -0.022654727 0.13956319
0.09210591 -0.073314406 0.04155812 0.051386245 0.10805285 0.096620105 0.0803889 0.09724404
0.010261259 0.07607613 0.0406051 0.005510336 -0.06866637 -0.014230139 -0.08409761 -0.004203748
-0.057134423 -0.013671212 0.063866675 0.18500991 0.023557268 -0.072133325 0.02738743 0.04103273
0.033047866 0.12026615 0.26352307 0.14165767 -0.14800397 0.0042791246 0.008527503 0.17243294
-0.011516081 -0.0064022355 0.116409406 0.053643517 0.09820635 0.20184325 0.08228699 0.124772556
0.044356707 -0.013821273 -0.06336332 -0.1596094 0.018696109 0.09404755 0.0026696525 0.004785003
0.02190871 0.03383772 -0.002085849 0.059752405 0.034900483 0.02817885 0.051847633 -0.013085392
0.08250109 0.057695307 0.10353501 0.07412486 0.052465227 -0.022371007 -0.05063486 -0.05978186
-0.030338598 0.07764833 0.083537795 0.036822695 0.01676353 -0.009054079 0.028700916 0.03233239
0.028448649 -0.0033413754 0.108295366 0.08139318 0.09400772 0.07226056 0.034906585 0.11463661
0.045946013 -0.009461453 -0.025676955 0.11144232 -0.033949032 0.019690167 0.04439817 0.05507079
-0.061268058 0.065390944 0.0924284 0.07126702 0.26173386 0.13241605 -0.19500886 -0.019700268
-0.049161207 -0.31889457 0.005240655 0.078890726 -0.12850437 0.0350442 0.06411589 0.03909684
0.026070775 -0.024739584 -0.07135191 0.06778387 0.09329632 0.16614072 0.07406311 -0.054339692
-0.14631017 -0.08207998 -0.009153493 0.03517742 0.049220182 0.02066978 -0.058463305 -0.038914092
0.03450092 0.15488777 0.11461622 0.020646209 -0.062432136 -0.017331095 0.0052384166 -0.053325016
0.037016932 0.06256415 -0.005489929 0.010364432 0.05038842 0.004476172 0.029650714 0.0341086
0.017158126 0.042460237 0.009547747 0.18103841 0.06837439 0.09087254 -0.026109682 0.0065635704
0.03502811 0.008046794 -0.10056017 -0.08191736 0.14403938 0.09994901 0.03207838 0.15903254
0.086106464 0.037799347 0.18311156 -0.04495563 -0.055907927 -0.043711722 -0.0708604 0.014691682
-0.009852989 0.1325997 0.16455749 0.076330766 0.110697 0.05557635 -0.079068646 -0.0108093545
-0.113352835 -0.003965168 -0.0090717785 -0.012636925 0.05218798 0.034664974 0.13374177 0.08446279
0.1085235 0.08771893 0.027314793 0.033817895 0.0787182 0.041451532 0.030574106 0.0134451315
0.032866217 0.02530444 -0.03134403 -0.07600721 0.14341089 0.097306825 0.106700495 0.11437545
0.1982231 0.10253815 0.11787955 0.052813284 0.025578476 0.020855656 0.00586865 0.03165881
0.08932996 0.008311263 -0.009072872 0.0680902 0.041557577 0.052739903 0.03452383 -0.020809168
-0.06586119 0.049698852 0.010243198 0.086283445 0.020980163 0.0017592192 0.02858325 0.055403613
0.13455439 0.08004497 -0.07246557 -0.0057773893 0.17097874 0.004563249 0.106832325 0.1596336
0.13974297 0.08703549 0.14190745 0.05749423 0.1546007 0.07526926 0.06652173 -0.02863736
-0.08126133 -0.102747306 -0.026230248 -0.014706631 -0.05325064 0.01603514 -0.044036534 0.016725743
00000000: 365e 0ebe e034 23be 6bc0 b4bd abed ad3d
00000010: 8942 793d f5ef 56bd e3b1 e83d b6ba f13d
00000020: 0d77 263e 79da 993d 9d74 adbc be17 6e3c
00000030: e1f0 4d3d dbd3 05bc 6896 b9bc a7e9 0e3e
00000040: 06a2 bc3d dd25 96bd d938 2a3d 627a 523d
00000050: d04a dd3d c3e0 c53d f0a2 a43d e227 c73d
00000060: d71e 283c cdcd 9b3d 8951 263d 0c90 b43b
00000070: f4a0 8cbd 8725 69bc 5e3b acbd 98bf 89bb
00000080: c905 6abd 38fd 5fbc 88cc 823d 3d73 3d3e
00000090: 2cfb c03c a3ba 93bd 9b5b e03c f011 283d
000000a0: 335d 073d 194e f63d 7fec 863e b50e 113e
000000b0: 5a8e 17be e637 8c3b f1b6 0b3c 4392 303e
000000c0: f2ad 3cbc d8c9 d1bb 0e68 ee3d 4eb9 5b3d
000000d0: 6920 c93d ffaf 4e3e 1586 a83d c188 ff3d
000000e0: 61af 353d 9f72 62bc a1c4 81bd a670 23be
000000f0: 9528 993c 009c c03d 56f5 2e3b 84cb 9c3b
00000100: e579 b33c 6c99 0a3d bdb2 08bb f0be 743d
00000110: cff3 0e3d 55d7 e63c 2f5e 543d 1d64 56bc
00000120: 55f6 a83d ea51 6c3d 2a0a d43d c6ce 973d
00000130: c7e5 563d 6743 b7bc 8066 4fbd d3dd 74bd
00000140: a788 f8bc 1606 9f3d dd15 ab3d 65d3 163d
00000150: ac53 893c 8f57 14bc 2f1e eb3c f86e 043d
00000160: 240d e93c fafa 5abb f6c9 dd3d 78b1 a63d
00000170: 1f87 c03d 58fd 933d 35fa 0e3d 99c6 ea3d
00000180: e331 3c3d 3604 1bbc 7a58 d2bc df3b e43d
00000190: 240e 0bbd 464d a13c dbda 353d e991 613d
000001a0: 37f4 7abd b0eb 853d 1a4b bd3d 72f4 913d
000001b0: fb01 863e 1398 073e 67b0 47be 7562 a1bc
000001c0: 435d 49bd 2646 a3be cdb9 ab3b 7691 a13d
000001d0: a696 03be 828a 0f3d 314f 833d 0224 203d
000001e0: 6192 d53c abaa cabc f320 92bd 45d2 8a3d
000001f0: 2412 bf3d cb20 2a3e 66ae 973d 4c93 5ebd
00000200: 55d2 15be 8c19 a8bd 88f8 15bc 3316 103d
00000210: 1a9b 493d ac53 a93c 3877 6fbd 6264 1fbd
00000220: d650 0d3d e69a 1e3e e9bb ea3d 3d22 a93c
00000230: d7b8 7fbd f1f9 8dbc 06a7 ab3b 556b 5abd
00000240: 119f 173d a221 803d dde4 b3bb 94cf 293c
00000250: 1664 4e3d daac 923b 0ee6 f23c 76b5 0b3d
00000260: 338f 8c3c c9ea 2d3d 276e 1c3c 2262 393e
00000270: df07 8c3d 621b ba3d f9e3 d5bc 3813 d73b
00000280: a379 0f3d b3d6 033c 7ef2 cdbd 4ac4 a7bd
00000290: 0f7f 133e 11b2 cc3d 9f64 033d 6dd9 223e
000002a0: 9658 b03d 7dd3 1a3d 9981 3b3e 6523 38bd
000002b0: b6ff 64bd 100b 33bd 421f 91bd 61b5 703c
000002c0: 6e6e 21bc 37c8 073e c281 283e 4e53 9c3d
000002d0: 1cb5 e23d 07a4 633d beee a1bd b819 31bc
000002e0: 8825 e8bd 3dee 81bb cca1 14bc 1b0b 4fbc
000002f0: 10c3 553d dcfc 0d3d 9af3 083e d4fa ac3d
00000300: 9241 de3d fba5 b33d 46c3 df3c a284 0a3d
00000310: 0237 a13d 15c9 293d 8c76 fa3c f848 5c3c
00000320: ba9e 063d 424b cf3c 9962 00bd aba9 9bbd
00000330: 4eda 123e cd48 c73d ca85 da3d ad3d ea3d
00000340: fffa 4a3e 86ff d13d d56a f13d be52 583d
00000350: f489 d13c 7bd9 aa3c ce4d c03b abac 013d
00000360: a0f2 b63d f72b 083c 62a6 14bc e072 8b3d
00000370: 4738 2a3d cc05 583d dc68 0d3d fd77 aabc
00000380: 3be2 86bd 0691 4b3d 16d3 273c 60b5 b03d
00000390: 97de ab3c 9a95 e63a 6b27 ea3c e6ee 623d
000003a0: a0c8 093e 9eee a33d d468 94bd 4150 bdbb
000003b0: 0d15 2f3e 4f87 953b e8ca da3d fe76 233e
000003c0: c818 0f3e aa3f b23d 3050 113e 127f 6b3d
000003d0: a54f 1e3e c526 9a3d 8b3c 883d e698 eabc
000003e0: 576c a6bd 2e6d d2bd d1e0 d6bc 15f4 70bc
000003f0: 581d 5abd 205c 833c a75f 34bd 6d04 893c

conv3.bias f4 [64]
0.30559427 0.22568919 -0.027445987 -0.050158966 -0.03226063 -0.05759565 -0.06836916 0.08140737
0.027043603 -0.007870537 0.18110086 0.032104112 -0.008281945 0.053818624 0.035883125 0.017482081
0.055735957 -0.051349103 0.24434304 0.28924873 0.25603122 0.0640219 0.16794395 0.10621012
0.28684133 0.113147505 0.05141591 0.14853904 0.04971096 0.38816592 0.09433981 -0.09609941
0.2485526 0.04798022 -0.018134672 0.03904041 0.21103545 -0.0029143752 0.07124348 -0.027982933
0.2776787 0.33102804 -0.022425076 0.1745264 0.022546971 0.03184651 0.01608918 0.024830079
0.096725635 -0.025712924 0.12758829 0.1550564 0.14284687 0.3140351 -0.044487156 -0.0030505261
0.0031689932 0.07879103 -0.052830935 0.104529575 0.25400555 0.11868885 0.00614806 0.014927532
00000000: da76 9c3e 111b 673e 68d6 e0bc 7d73 4dbd
00000010: b923 04bd 6be9 6bbd 2105 8cbd e8b8 a63d
00000020: 8c8a dd3c 6df3 00bc 8172 393e 9a7f 033d
00000030: ffb0 07bc eb70 5c3d 2ffa 123d 9536 8f3c
00000040: 634b 643d 7053 52bd 1035 7a3e 6918 943e
00000050: 8616 833e ea1d 833d 80f9 2b3e b184 d93d
00000060: dedc 923e e1b9 e73d 7d99 523d 9e1a 183e
00000070: b89d 4b3d afbd c63e 3b35 c13d c4cf c4bd
00000080: 9384 7e3e e886 443d 2a8f 94bc d6e8 1f3d
00000090: ad19 583e 1aff 3ebb 1ae8 913d 773c e5bc
000000a0: e72b 8e3e 827c a93e cbb4 b7bc 0cb7 323e
000000b0: 6db4 b83c 7c71 023d 75cd 833c 7368 cb3c
000000c0: 1718 c63d e9a3 d2bc 81a6 023e 1bc7 1e3e
000000d0: 7346 123e 35c9 a03e 2a38 36bd 56eb 47bb
000000e0: e2ae 4f3b 315d a13d 4065 58bd 9a13 d63d
000000f0: 040d 823e 2413 f33d aa75 c93b 9b92 743c

fc1.weight f4 [256, 256]
0.1031136 0.023051698 0.0756055 0.055470712 -0.40381843 -0.18113115 -0.33310866 -0.33988965
0.017173322 -0.047257606 -0.09965045 -0.009378173 -0.099121734 -0.57909024 0.13625051 0.06473308
0.009768943 -0.0063864286 -0.0050885305 0.03663289 0.17890202 -0.039118223 -0.29748031 -0.03807967
0.14440168 -0.3281812 -0.014463746 -0.35170656 -0.07623834 0.020994779 -0.012789179 0.20987359
-0.30278918 0.04482001 -0.089896075 -0.024188252 0.12746991 0.022467025 -0.1372951 0.22805735
0.058416907 0.04780128 -0.032727063 0.04301872 -0.23149332 -0.15057854 -0.14605245 0.02181546
-0.067961656 0.0034842568 -0.05566229 -0.044497672 -0.7021908 -0.031262714 -0.016051164 -0.045399353
-0.060304698 0.21077438 -0.0069134966 -0.01616116 -0.0008066339 -0.025331974 0.076555274 -0.036911227
0.3192538 0.14858025 0.18169299 0.22345594 -0.28092232 -0.19790557 -0.09157303 0.01203457
-0.12816656 0.15259108 -0.2207721 0.015771685 0.1105595 -0.10596713 -0.38087726 -0.37278298
0.086658776 -0.002947084 0.12802255 0.13121654 0.07316983 0.076491624 0.06500148 -0.07582634
0.075731814 -0.8414411 -0.07369824 -0.15044023 0.05174157 -0.048150674 -0.00032143196 -0.050612256
-0.054008704 0.020188078 0.08368883 0.14278698 0.19066013 0.4115898 0.022095492 0.18909204
-0.28309464 -0.3164426 -0.18412395 0.02336541 -0.07635988 0.07314512 0.029399803 -0.005057028
-0.16686867 -0.019586282 0.35828722 -0.2297794 0.090518735 0.20866014 0.076848924 0.114361964
-0.011793837 -0.184685 -0.22694245 0.1552441 0.19206332 -0.30432266 -0.34321496 -0.14735892
-0.10773592 -0.40404382 -0.17444327 0.034291755 0.10572438 0.23706871 -0.27195764 -0.27518785
-0.99437773 -0.45886627 0.05292212 -0.11439443 0.29399386 0.27873313 -0.11904291 0.012130364
0.28301305 -0.17811362 -0.18560906 -0.046263147 0.02743271 -0.038218953 0.15016958 -0.029343138
0.03424317 0.022740416 0.062413905 -0.043088004 -0.1416879 -0.058997273 -0.3099376 -0.059810046
-0.01057185 0.1586638 0.27645344 0.19170071 -0.13174205 -0.19835542 -0.011518414 -0.1027223
-0.22047022 -0.33354095 -0.022365259 0.030546097 -0.29262918 0.10902048 -0.18735419 -0.27937546
0.04031231 0.13285454 0.037440214 -0.121638484 -0.40378773 0.3058245 -0.10201642 0.2502049
0.18084806 0.1610556 -0.21192388 -0.020773267 0.06261742 -0.039516147 0.05228366 0.04322677
0.048916455 0.256067 0.28442702 -0.14638308 -0.05443064 -0.022674382 0.0006484129 0.007720223
0.2681076 0.16014937 -0.022269817 0.07338766 -0.12541577 -0.15753438 0.2404871 -0.15746923
-0.45556334 -0.09837701 -0.3144377 0.10680008 -0.17351887 -0.23512976 0.005796482 0.2891146
-1.0379333 -0.08623099 0.044901893 -0.048835147 -0.016084021 0.05227542 0.066367455 -0.0144306775
-0.10059771 0.107377395 0.0667174 0.20346572 0.17429088 -0.63695794 0.09958768 -0.064592026
0.06761747 -0.06356413 0.032847963 0.020879276 -0.5618495 -0.43435118 0.1308605 0.018177781
0.029652545 -0.040940877 -0.02010039 -0.30553186 -0.26588228 -0.0023488675 0.10701419 0.17099185
0.05605052 0.08602045 0.06964416 -0.004422828 -0.10468524 -0.04255469 0.30150667 0.20052972
00000000: 392d d33d ead6 bc3c 0ed7 9a3d 4235 633d
00000010: 4ac1 cebe 727a 39be 388d aabe 0406 aebe
00000020: 11af 8c3c 3191 41bd 8915 ccbd e9a6 19bc
00000030: 5600 cbbd 423f 14bf 4185 0b3e c792 843d
00000040: eb0d 203c 3f45 d1bb b0bd a6bb 5f0c 163d
00000050: 1732 373e 6e3a 20bd 574f 98be 6ef9 1bbd
00000060: 09de 133e 5e07 a8be 59f9 6cbc e212 b4be
00000070: d922 9cbd 3efd ab3c b489 51bc 1ae9 563e
00000080: 2f07 9bbe 3095 373d 6f1b b8bd 7126 c6bc
00000090: 7987 023e c40c b83c 1697 0cbe de87 693e
000000a0: 9146 6f3d 46cb 433d d00c 06bd 6634 303d
000000b0: 960c 6dbe 4331 1abe c68e 15be 56b6 b23c
000000c0: 7b2f 8bbd 2158 643b 24fe 63bd 3143 36bd
000000d0: c7c2 33bf 550d 00bd bb7d 83bc acf4 39bd
000000e0: 0f02 77bd 3dd5 573e 9d8a e2bb 6964 84bc
000000f0: 4974 53ba 0085 cfbc 03c9 9c3d 3a30 17bd
00000100: 3c75 a33e 6c25 183e ba0d 3a3e a2d1 643e
00000110: 0dd5 8fbe c2a7 4abe a48a bbbd a52c 453c
00000120: 183e 03be d640 1c3e 1512 62be 9f33 813c
00000130: 056d e23d 4b05 d9bd 5802 c3be 69dd bebe
00000140: 287a b13d dd23 41bb 5818 033e a15d 063e
00000150: 10da 953d a4a7 9c3d 7f1f 853d d74a 9bbd
00000160: 4819 9b3d af68 57bf 1aef 96bd 010d 1abe
00000170: f8ee 533d a439 45bd de85 a8b9 cc4e 4fbd
00000180: 3b38 5dbd 7861 a53c 0d65 ab3d c036 123e
00000190: 693c 433e e6bb d23e 9b01 b53c 58a1 413e
000001a0: c8f1 90be c404 a2be fd8a 3cbe d168 bf3c
000001b0: 9262 9cbd 1ccd 953d dbd7 f03c 6db5 a5bb
000001c0: 9fdf 2abe 6973 a0bc 6c71 b73e 4b4b 6bbe
000001d0: e361 b93d 01ab 553e f862 9d3d 9b36 ea3d
000001e0: f03a 41bc 111e 3dbe 9a63 68be 4ff8 1e3e
000001f0: 3fac 443e 2ed0 9bbe dfb9 afbe 42e5 16be
00000200: a6a4 dcbd d5de cebe 42a1 32be 8375 0c3d
00000210: 0686 d83d 24c2 723e 083e 8bbe 6ce5 8cbe
00000220: 8a8f 7ebf 85f0 eabe ddc4 583d a047 eabd
00000230: 5d86 963e 1cb6 8e3e c5cc f3bd 6fbe 463c
00000240: 16e7 903e 6b63 36be 4d10 3ebe 6d7e 3dbd
00000250: 90ba e03c 7a8b 1cbd 0ec6 193e 0561 f0bc
00000260: 9142 0c3d 1c4a ba3c b9a5 7f3d 0c7d 30bd
00000270: a216 11be 20a7 71bd 24b0 9ebe 61fb 74bd
00000280: 8e35 2dbc c378 223e 4e8b 8d3e 314d 443e
00000290: 63e7 06be af1d 4bbe bbb7 3cbc 1260 d2bd
000002a0: f2c2 61be e1c5 aabe 5937 b7bc cf3b fa3c
000002b0: 7ed3 95be 2146 df3d c7d9 3fbe 4d0a 8fbe
000002c0: 851e 253d 050b 083e e95a 193d 991d f9bd
000002d0: 44bd cebe 0795 9c3e fced d0bd db1a 803e
000002e0: 3c30 393e c2eb 243e 9302 59be b32c aabc
000002f0: 903d 803d afdb 21bd 6427 563d 8e0e 313d
00000300: 9f5c 483d 371b 833e 6ba0 913e 72e5 15be
00000310: aaf2 5ebd a0bf b9bc 41fa 293a edf9 fc3b
00000320: 6645 893e 32fe 233e 316f b6bc 454c 963d
00000330: fe6c 00be b150 21be 4042 763e 9d3f 21be
00000340: 993f e9be e379 c9bd fafd a0be 00ba da3d
00000350: eeae 31be dbc5 70be 6af0 bd3b d406 943e
00000360: 00db 84bf e099 b0bd 0ceb 373d 5d07 48bd
00000370: a3c2 83bc c01e 563d a9eb 873d a66e 6cbc
00000380: 2c06 cebd aee8 db3d 22a3 883d 5159 503e
00000390: 4f79 323e ad0f 23bf a0f4 cb3d d348 84bd
000003a0: 077b 8a3d e92d 82bd 968b 063d 040b ab3c
000003b0: 5ed5 0fbf 4763 debe 4b00 063e 92e9 943c
000003c0: e5e9 f23c 9fb1 27bd 93a9 a4bc ac6e 9cbe
000003d0: b921 88be 75ef 19bb 412a db3d 7d18 2f3e
000003e0: 3b95 653d 7d2b b03d 99a1 8e3d 5fed 90bb
000003f0: 3765 d6bd d44d 2ebd 155f 9a3e aa57 4d3e

fc1.bias f4 [256]
0.2441675 0.46545216 0.22507049 -0.002695761 0.021939803 -0.03544472 0.27509013 0.29457933
-0.020818502 0.22193728 0.6654675 0.028907493 -0.44686505 0.1912177 0.044724327 0.02386938
-0.012635615 -0.06772112 -0.072589844 0.2710639 0.2520454 0.08084388 0.3403037 0.23210123
-0.013436247 0.19036242 -0.044532295 -0.020735526 0.57864165 -0.1865755 -0.0022474935 -0.06015342
0.46717545 0.18218967 -0.10496109 -0.003254676 0.013100869 0.3122182 0.02445264 0.14380336
0.23480032 -0.034823187 -0.040271863 -0.08048 0.024861066 0.17733087 0.25067502 -0.09154471
0.014282453 -0.11786796 0.0864892 0.15358514 -0.12131492 -0.01046543 -0.09132318 -0.07514511
0.09663692 -0.042303555 -0.09030347 0.0053357417 0.05277699 -0.027332861 -0.07989049 0.04530433
0.44765297 0.30478242 0.07590892 -0.0010401604 0.11808825 -0.08639373 0.038469795 0.024092978
-0.022172054 0.06299577 -0.0133967195 -0.11023742 0.48293266 -0.032157924 0.09758095 -0.033592246
0.14949097 -0.0389685 -0.032597736 -0.07154213 0.09695928 0.12978426 -0.07707956 0.2475909
0.06579987 0.23760392 0.27070975 -0.09863432 0.26908353 -0.023760362 -0.04662255 -0.106732555
0.23444428 0.1475928 0.1120674 -0.127754 0.22920308 -0.07739595 0.20754814 0.034822144
0.03313333 0.43164152 0.2121011 0.29563075 0.08376991 0.001588957 -0.08525872 -0.024272759
0.02818373 0.22349814 0.4580176 0.02530827 -0.009551199 0.16445453 -0.050055288 0.23518789
0.012569689 -0.056928165 -0.064353354 -0.07761049 -0.16268253 -0.07391417 -0.06855467 0.16408414
0.20719968 0.15510501 0.005432837 0.13612606 -0.039221637 -0.04782704 -0.078738436 -0.043555353
0.24080169 -0.10111251 0.16391037 0.22014178 0.010107259 0.094472505 -0.061662715 0.05589588
0.32872644 -0.07323718 0.071862616 0.017704176 0.206137 0.010912562 -0.059934385 -0.018965896
-0.09164511 -0.07172696 0.027976634 0.025145218 0.025834095 0.24344915 -0.04233193 0.08230346
0.093844526 0.21665919 0.3113022 -0.07629043 0.010567281 -0.06924488 0.3327788 0.078668796
0.17247343 0.021985585 0.16823703 -0.019131273 -0.119797796 0.0027809998 -0.051731404 -0.014609263
0.06541553 0.14318195 -0.01105735 -0.10888111 0.23957574 0.010127273 0.27775007 0.3195538
0.21066724 0.062333576 -0.08985856 -0.022080366 -0.011543278 0.51647973 0.08162772 0.25328714
0.03981686 0.059623465 -0.07653814 -0.023211751 0.06755456 0.09889752 0.46051466 0.04566748
-0.0011046903 0.21061783 0.5987473 -0.084028244 0.1249435 -0.026363604 0.2593301 -0.068615794
-0.09766141 0.09610654 -0.008708827 0.019445786 0.22502765 0.07786452 -0.04505725 0.30583107
-0.07025707 0.058164366 -0.008913146 0.21147469 -0.08485139 0.5084409 0.015972557 0.026559135
0.20205465 0.0612942 0.19354557 0.0635543 -0.089132115 0.040610164 -0.063229814 0.028266918
-0.018783323 -0.077325284 0.08889225 -0.07431819 -0.011522513 0.007835971 -0.01701519 0.024400305
0.034471978 -0.21092553 -0.06646945 -0.05091472 -0.0070627662 -0.021870675 0.4391652 -0.057529796
0.043659974 0.12587902 0.021339217 0.08381502 0.07273151 0.002397135 -0.045921557 -0.080420926
00000000: 0c07 7a3e bf4f ee3e e178 663e 5dab 30bb
00000010: 1abb b33c 7c2e 11bd 9dd8 8c3e 1ad3 963e
00000020: 908b aabc 8743 633e 145c 2a3f 68cf ec3c
00000030: 7fcb e4be 93ce 433e db30 373d b889 c33c
00000040: 9c05 4fbc 5fb1 8abd fca9 94bd e3c8 8a3e
00000050: 180c 813e 7a91 a53d 493c ae3e f2ab 6d3e
00000060: b423 5cbc 5eee 423e 7f67 36bd 8ddd a9bc
00000070: dc21 143f a60d 3fbe af4a 13bb 6f63 76bd
00000080: 9f31 ef3e ee8f 3a3e d7f5 d6bd 674c 55bb
00000090: 07a5 563c 10db 9f3e e750 c83c 3041 133e
000000a0: 7f6f 703e c2a2 0ebd 1cf4 24bd b3d2 a4bd
000000b0: 6fa9 cb3c 3996 353e 7a58 803e cb7b bbbd
000000c0: f300 6a3c c264 f1bd 4021 b13d 6c45 1d3e
000000d0: f573 f8bd 3277 2bbc a607 bbbd aee5 99bd
000000e0: 94e9 c53d 7e46 2dbd 07f1 b8bd 72d7 ae3b
000000f0: af2c 583d 2ae9 dfbc a09d a3bd 0891 393d
00000100: c532 e53e 710c 9c3e 2376 9b3d fe55 88ba
00000110: 41d8 f13d 32ef b0bd 8192 1d3d a35e c53c
00000120: 2ba2 b5bc ed03 813d ea7d 5bbc 28c4 e1bd
00000130: f342 f73e 07b8 03bd 85d8 c73d 0698 09bd
00000140: 2914 193e 6f9d 1fbd 3485 05bd ae84 92bd
00000150: 9692 c63d 2ae6 043e e3db 9dbd 7888 7d3e
00000160: 15c2 863d 714e 733e 789a 8a3e ca00 cabd
00000170: 51c5 893e 17a5 c2bc 49f7 3ebd 9996 dabd
00000180: 2912 703e 9122 173e 9883 e53d f2d1 02be
00000190: 36b4 6a3e c581 9ebd 8087 543e aaa1 0e3d
000001a0: d1b6 073d 1e00 dd3e 0831 593e ea5c 973e
000001b0: 8f8f ab3d 8d44 d03a 209c aebd aad7 c6bc
000001c0: 91e1 e63c b2dc 643e 4881 ea3e 4a53 cf3c
000001d0: a27c 1cbc c566 283e c606 4dbd 18d5 703e
000001e0: 19f1 4d3c 822d 69bd b1cb 83bd 40f2 9ebd
000001f0: 4096 26be 5060 97bd 6466 8cbd ac05 283e
00000200: 272c 543e d9d3 1e3e f105 b23b a164 0b3e
00000210: dea6 20bd 49e6 43bd 9e41 a1bd 1967 32bd
00000220: b894 763e 1314 cfbd 1fd8 273e d96c 613e
00000230: eb98 253c cd7a c13d 0b92 7cbd 14f3 643d
00000240: d54e a83e 60fd 95bd b52c 933d 5908 913c
00000250: 9415 533e 9aca 323c c27d 75bd 5e5e 9bbc
00000260: 6eb0 bbbd 96e5 92bd 412f e53c 58fd cd3c
00000270: 06a2 d33c bc4a 793e 3f64 2dbd b78e a83d
00000280: 8f31 c03d e8db 5d3e 0163 9f3e 283e 9cbd
00000290: 6422 2d3c 42d0 8dbd fc61 aa3e 1b1d a13d
000002a0: e09c 303e 1d1b b43c 5446 2c3e 30b9 9cbc
000002b0: 8c58 f5bd 6f41 363b 4fe4 53bd b15b 6fbc
000002c0: 94f8 853d 4a9e 123e e329 35bc 0ffd debd
000002d0: 5853 753e ddec 253c 4235 8e3e 8e9c a33e
000002e0: 27b9 573e 7e51 7f3d c407 b8bd e2e1 b4bc
000002f0: 0420 3dbc 0438 043f 6f2c a73d daae 813e
00000300: 0117 233d bc37 743d 07c0 9cbd 9226 bebc
00000310: 0c5a 8a3d c88a ca3d 94c8 eb3e d30d 3b3d
00000320: 41cb 90ba 33ac 573e 8147 193f 0017 acbd
00000330: 61e2 ff3d 7cf8 d7bc eac6 843e 7086 8cbd
00000340: b502 c8bd 81d3 c43d 78af 0ebc c54c 9f3c
00000350: a66d 663e 6f77 9f3d f38d 38bd e495 9c3e
00000360: f0e2 8fbd c23d 6e3d 7208 12bc d28c 583e
00000370: 91c6 adbd 2f29 023f e1d8 823c 8b92 d93c
00000380: 6ae7 4e3e a10f 7b3d cf30 463e c228 823d
00000390: e68a b6bd d856 263d a27e 81bd 0690 e73c
000003a0: 7cdf 99bc b85c 9ebd 240d b63d 2334 98bd
000003b0: ecc8 3cbc 7262 003c 7163 8bbc 26e3 c73c
000003c0: 7d32 0d3d ddfc 57be 2321 88bd f48b 50bd
000003d0: c76e e7bb 212a b3bc 43da e03e 5da4 6bbd
000003e0: cdd4 323d 6ee6 003e 95cf ae3c 36a7 ab3d
000003f0: 42f4 943d 4019 1d3b 3e18 3cbd bab3 a4bd

fc2.weight f4 [2, 256]
-0.016437491 0.2725214 -0.34271115 0.018919297 -0.025210794 -0.0072292555 0.028478721 0.0026403088
-0.047231447 -0.16817774 0.17211212 0.018090207 -0.13926125 -0.0059005716 -0.01745457 0.00035485873
-0.0065813363 -0.00024267628 -0.0049641063 -0.14091597 -0.7211712 -0.0133402 0.081132546 -0.01418861
-0.0020154945 -0.0014161244 -0.044150785 -0.018041039 0.18214339 0.74753106 0.01596582 0.024221858
0.15257297 0.02034238 -0.018104836 0.0036234912 -0.04820856 0.08164461 0.0035273412 -0.23824368
-0.0060502305 -0.0118685085 0.0024362202 0.038779497 -0.014485946 0.15273784 0.005950226 0.0036407553
-0.080882 0.20648912 0.00028560174 0.21935785 0.039115544 -0.021824831 -0.029857026 0.02679655
0.015674544 -0.01344012 0.01865114 0.034686517 -0.0026916375 -0.029189903 0.010686442 -0.008645441
0.15555443 -0.6044886 -0.003053591 0.03681938 0.004392591 0.02630816 -0.0030998096 -0.01628439
0.044159777 0.036507443 0.04520999 0.008600265 0.105251014 -0.013002264 -0.031176945 -0.016693037
0.26927164 0.008918883 -0.00061240053 0.0066286395 0.011565738 0.006364408 0.02193587 0.00041160124
-0.09169852 0.052281186 0.1745746 0.015118714 0.024655046 0.020289324 -0.016829047 -0.013173251
-0.003090159 -0.0041143456 0.029169701 -0.014570629 -0.004146185 0.019927083 -0.021504048 0.014197186
0.03808838 0.077730075 0.009601686 0.051849667 0.0033435044 0.015542969 0.0105412025 -0.008613738
-0.01752459 -0.076471694 0.09077105 0.01947991 0.023007808 -0.33504415 -0.0098092295 -0.06754396
0.011973288 -0.050053764 -0.0035595328 -0.04138022 0.7374229 -0.049551263 -0.017805511 -0.24042423
-0.110098936 0.10072816 0.0032372498 0.13864228 0.019091804 -0.0010756627 -0.012912662 -0.04055401
-0.016727349 0.029648947 -0.14328866 -0.28514084 -0.025607964 0.021236444 -0.009592371 0.016119225
-0.14968881 -0.00033622538 0.0033626677 -0.030851187 0.016121453 0.015297508 0.02809847 -0.023505082
-0.086710915 -0.028939389 -0.034581345 -0.037231326 0.03611852 -0.000769531 -0.0024187881 -0.015074375
0.1541464 -0.039804336 -0.32205424 -0.015369046 0.02135836 -0.0123507725 -0.0062209223 0.0066122543
0.003151216 -0.030975478 -0.019521412 0.037345756 0.022640157 0.01440117 -0.017711772 -0.03556368
-0.030516254 -0.051303487 0.028760495 0.007784583 0.10975561 0.01967114 0.021292455 -0.017294595
0.01803994 0.12012445 0.020467542 -0.02833726 -0.007149205 0.22967833 0.10798336 0.0104423845
-0.02565964 0.026330344 0.00960504 0.0007282864 0.13774335 0.027071305 0.101590335 -0.023969265
0.6447449 0.015379114 0.042577874 -0.04158729 -0.013240695 0.0059718397 0.0014171454 -0.07819841
0.0438229 -0.06424461 -0.7794706 -0.028288115 -0.011612498 -0.5570781 -0.025985435 -0.0034330192
0.00012421112 0.3250797 0.0032014744 0.005514454 -0.010106106 0.04104443 -0.0068849726 0.00039282464
-0.099147886 -0.0008864147 -0.062399805 -0.0076072477 0.8223877 -0.3305159 0.046879634 0.011357778
0.008423845 -0.0029207137 0.01924391 0.015543804 -0.0093370145 0.025094585 0.011631967 -0.02768334
-0.008617263 -0.10169199 -0.018471584 -0.018770052 0.02192119 -0.019946592 0.11480502 -0.042865396
-0.015404056 -0.073857106 -0.010387506 0.020022674 0.015223384 -0.055136677 -0.02321573 0.0014727509
00000000: eba7 86bc ed87 8b3e d677 afbe a4fc 9a3c
00000010: de86 cebc 64e3 ecbb 354c e93c 0809 2d3b
00000020: c375 41bd c936 2cbe 293e 303e ea31 943c
00000030: 809a 0ebe 9559 c1bb e3fc 8ebc 550c ba39
00000040: 40a8 d7bb eb76 7eb9 f1a9 a2bb 474c 10be
00000050: ad9e 38bf db90 5abc d228 a63d 5877 68bc
00000060: 6316 04bb 409d b9ba 74d7 34bd cdca 93bc
00000070: cc83 3a3e 325e 3f3f c0ca 823c eb6c c63c
00000080: 173c 1c3e 10a5 a63c 9850 94bc 1878 6d3b
00000090: 5776 45bd 4a35 a73d f72a 673b 27f6 73be
000000a0: 0341 c6bb 2274 42bc fea8 1f3b 40d7 1e3d
000000b0: 7656 6dbc 4f67 1c3e 1dfa c23b bd99 6e3b
000000c0: 76a5 a5bd e271 533e d1bc 9539 589f 603e
000000d0: 9f37 203d fdc9 b2bc b996 f4bc 7084 db3c
000000e0: e767 803c f333 5cbc 47ca 983c 7313 0e3d
000000f0: 2f66 30bb aa1f efbc 3016 2f3c 9ca5 0dbc
00000100: a949 1f3e c4bf 1abf c11e 48bb ebcf 163d
00000110: b9ef 8f3b 3684 d73c 2d26 4bbb d766 85bc
00000120: e2e0 343d d488 153d 1c2e 393d 20e8 0c3c
00000130: d88d d73d 7307 55bc cb66 ffbc d6bf 88bc
00000140: f9dd 893e 8220 123c 8189 20ba 0f35 d93b
00000150: 397e 3d3c 868c d03b dbb2 b33c 2fcc d739
00000160: 6fcc bbbd cc24 563d afc3 323e 7cb4 773c
00000170: 61f9 c93c cc35 a63c 12dd 89bc 9fd4 57bc
00000180: 4484 4abb a2d1 86bb 4cf5 ee3c a6b9 6ebc
00000190: b8dc 87bb 1f3e a33c 4229 b0bc 509b 683c
000001a0: 9002 1c3d f230 9f3d 6450 1d3c 5160 543d
000001b0: b21e 5b3b f0a7 7e3c 02b5 2c3c a320 0dbc
000001c0: bb8f 8fbc 319d 9cbd 2ce6 b93d 5594 9f3c
000001d0: df7a bc3c e88a abbe e4b6 20bc 7d54 8abd
000001e0: 9c2b 443c 2d05 4dbd 0d47 69bb 4e7e 29bd
000001f0: bfc7 3c3f 44f6 4abd dddc 91bc c531 76be
00000200: 8d7b e1bd 914a ce3d 0a28 543b 3ef8 0d3e
00000210: 6a66 9c3c 40fd 8cba a18f 53bc f61b 26bd
00000220: cb07 89bc 59e2 f23c 43ba 12be fbfd 91be
00000230: cbc7 d1bc 0df8 ad3c 5229 1dbc 770c 843c
00000240: 0648 19be 6847 b0b9 3460 5c3b a1bb fcbc
00000250: 2311 843c 66a2 7a3c c32e e63c bb8d c0bc
00000260: 7e95 b1bd 4c12 edbc 2ba5 0dbd e07f 18bd
00000270: 03f1 133d 5aba 49ba 8884 1ebb 83fa 76bc
00000280: 8ed8 1d3e df09 23bd 4be4 a4be 73ce 7bbc
00000290: baf7 ae3c e55a 4abc e1d8 cbbb 9cab d83b
000002a0: a284 4e3b 49c0 fdbc 5eeb 9fbc ddf7 183d
000002b0: da77 b93c e3f2 6b3c 4718 91bc 39ab 11bd
000002c0: 39fd f9bc 9b23 52bd 219b eb3c d115 ff3b
000002d0: 8dc7 e03d 5f25 a13c 846d ae3c 65ad 8dbc
000002e0: 7fc8 933c cf03 f63d 8cab a73c 8b23 e8bc
000002f0: e143 eabb cc30 6b3e 6126 dd3d 8916 2b3c
00000300: 2a34 d2bc bcb2 d73c 755e 1d3c 79ea 3e3a
00000310: 980c 0d3e a4c4 dd3c 980e d03d 315b c4bc
00000320: 000e 253f aef8 7b3c 2366 2e3d 6f57 2abd
00000330: 80ef 58bc 6caf c33b 82bf b93a 7d26 a0bd
00000340: a47f 333d ae92 83bd 638b 47bf 7abc e7bc
00000350: 5942 3ebc ac9c 0ebf 68df d4bc 81fc 60bb
00000360: ab3e 0239 d970 a63e d4cf 513b 98b2 b43b
00000370: 1594 25bc 341e 283d 569b e1bb 08f4 cd39
00000380: 0c0e cbbd 495e 68ba f096 7fbd 3846 f9bb
00000390: 0088 523f 6139 a9be dc04 403d f915 3a3c
000003a0: 2b04 0a3c 7269 3fbb 68a5 9d3c 70ab 7e3c
000003b0: 47fa 18bc 2993 cd3c 0194 3e3c 2cc8 e2bc
000003c0: 6c2f 0dbc e443 d0bd b851 97bc a7c3 99bc
000003d0: 1194 b33c 0967 a3bc e51e eb3d a093 2fbd
000003e0: 4b61 7cbc 6542 97bd 5c30 2abc 9706 a43c
000003f0: 806b 793c ffd6 61bd ea2e bebc 5209 c13a

fc2.bias f4 [2]
0.42800644 -0.13968906
00000000: a923 db3e a60a 0fbe
