DQN/model/model33300.pkl (torch, 580039 bytes, 10 tensors)

conv1.weight f4 [32, 4, 8, 8]
0.027791305 0.08840731 0.009781646 0.01815066 -0.04714368 -0.16707589 -0.07418858 0.038607106
-0.09457361 -0.032730773 -0.19732442 -0.24950826 -0.427918 -0.23098126 -0.050860696 0.097110726
-0.03577604 0.10069196 0.024883995 -0.177447 -0.33899772 -0.298483 -0.10490629 0.0045931195
0.39467147 -0.08122903 0.034783896 -0.24155426 -0.1958213 0.008078043 0.18453082 0.19134617
0.29515785 0.104518026 -0.03527912 -0.31126404 -0.7376463 -0.16482417 -0.21582207 0.020613141
0.1403896 -0.11499761 -0.31955335 -0.6427388 -0.8653739 0.0031410074 0.059321355 0.08331451
0.12386415 0.09900746 -0.25457752 -0.4620035 -0.40650427 -0.63309497 -0.2124568 -0.16408585
-0.026198441 -0.18271407 -0.80517167 -1.0337136 -0.6102522 -0.7415219 -0.7370202 -0.9261649
-0.013666737 -0.13157819 0.026280478 -0.06188203 -0.06532047 0.16273107 0.025085788 0.02060695
0.03537976 -0.01135199 0.106082566 0.22649957 0.2684895 0.27275994 0.16301829 0.06519004
0.045447323 0.060456447 0.059907824 0.19495688 0.31573516 0.20590113 0.11920775 0.14205916
-0.05977489 0.019976957 0.07406063 0.2402751 0.4370753 0.31693217 0.09171251 -0.03966505
-0.03884902 -0.11563396 0.13132536 0.18132275 0.19838713 -0.01952769 -0.0144795505 -0.18027821
-0.10786403 0.041688267 0.24041933 0.28225958 0.17394862 0.04340792 -0.110896885 0.09402223
0.018004974 0.0974459 0.17977129 0.5674956 0.3780414 -0.046683602 0.112640776 0.08732297
0.058287565 0.1375006 0.17326313 0.6500524 0.5852303 0.037447963 -0.3207981 -0.2437252
-0.103972174 -0.132206 -0.09057366 -0.12670678 -0.02290712 -0.020140862 0.015237168 0.03288202
-0.035825435 -0.010092983 0.04393396 0.017258305 -0.013118971 -0.04888878 -0.03784734 -0.14831728
0.092967935 0.021195145 0.035723474 0.09098594 0.053545624 0.1427339 0.16274677 0.1420603
-0.045863286 -0.09915544 -0.06719019 -0.009631589 0.056717426 0.0823784 0.014068929 0.032503918
-0.030979017 0.023710495 -0.008424536 0.022814797 -0.016919656 -0.030174822 0.06833971 0.13715829
0.033448193 0.09013694 0.037616286 0.07455751 0.12825944 0.14056985 0.087029 0.136436
-0.17104055 -0.023236975 0.026775818 0.03689232 0.005426093 0.015054764 -0.09000362 -0.10218088
-0.015271312 -0.01183129 0.19676007 0.2941872 0.3490531 0.12993492 -0.06387536 -0.04503941
0.07381516 0.02006473 -0.043272756 -0.114349686 -0.06040293 -0.013991548 -0.07562355 -0.1541488
0.048415374 0.089196876 0.05307547 -0.00042075652 -0.04917267 0.019707268 -0.03555225 -0.031842567
0.10261274 0.024927216 0.085152656 0.09795257 0.024121715 0.04874325 0.07381187 -0.10677601
0.036502168 0.011793347 -0.0074285194 0.041755784 0.05140857 0.029500779 0.023140006 -0.05088574
-0.038801827 0.04410679 -0.11796955 -0.0706654 -0.052218273 0.006171976 0.010182503 0.15197437
0.11032931 0.10576893 -0.028353106 0.034926143 -0.0355334 0.06569838 0.105305724 0.13275608
-0.00059588527 -0.05480573 -0.03579579 -0.08866879 -0.033796445 -0.048661225 -0.059747245 -0.009138207
-0.04241393 -0.1645141 -0.11725632 0.034487274 0.0103845745 -0.044957966 0.025497468 -0.14883125
00000000: 97aa e33c e40e b53d 3243 203c b1b0 943c
00000010: bb19 41bd f115 2bbe 2ff0 97bd 7c22 1e3d
00000020: cfaf c1bd b410 06bd 6a0f 4abe 187f 7fbe
00000030: 1118 dbbe 5a86 6cbe 4e53 50bd fde1 c63d
00000040: e689 12bd 9637 ce3d 85d9 cb3c abb4 35be
00000050: 1c91 adbe c4d2 98be 1cd9 d6bd e181 963b
00000060: 6112 ca3e 685b a6bd 8f79 0e3d 005a 77be
00000070: 6185 48be c559 043c a6f5 3c3e 40f0 433e
00000080: ee1e 973e 8c0d d63d d780 10bd 005e 9fbe
00000090: 63d6 3cbf abc7 28be 7600 5dbe e4dc a83c
000000a0: 4bc2 0f3e de83 ebbd 7f9c a3be 888a 24bf
000000b0: 2589 5dbf 5cd9 4d3b f3fa 723d cca0 aa3d
000000c0: 7dac fd3d 6cc4 ca3d fc57 82be b98b ecbe
000000d0: 5421 d0be 8312 22bf 468e 59be 1f06 28be
000000e0: 1d9e d6bc 6619 3bbe bb1f 4ebf ba50 84bf
000000f0: 7d39 1cbf 61d4 3dbf 5bad 3cbf 2519 6dbf
00000100: 73ea 5fbc 6fbc 06be 284a d73c 0378 7dbd
00000110: bdc6 85bd f9a2 263e b680 cd3c e8cf a83c
00000120: 5eea 103d b2fd 39bc d141 d93d 81ef 673e
00000130: 7577 893e 31a7 8b3e 44ee 263e 5b82 853d
00000140: f926 3a3d 2ea1 773d e861 753d c7a2 473e
00000150: 0aa8 a13e bfd7 523e 3123 f43d f577 113e
00000160: 84d6 74bd b7a6 a33c 19ad 973d ad0a 763e
00000170: 55c8 df3e ef44 a23e c5d3 bb3d d277 22bd
00000180: 2620 1fbd 7fd1 ecbd 287a 063e acac 393e
00000190: ff25 4b3e 89f8 9fbc a33b 6dbc da9a 38be
000001a0: d1e7 dcbd 51c1 2a3d 7c30 763e 5484 903e
000001b0: 961f 323e 81cc 313d e81d e3bd ba8e c03d
000001c0: 2b7f 933c b791 c73d f715 383e 6447 113f
000001d0: a48e c13e 4e37 3fbd 35b0 e63d 63d6 b23d
000001e0: f1be 6e3d f5cc 0c3e e46b 313e d669 263f
000001f0: a7d1 153f 0963 193d a63f a4be 1993 79be
00000200: 5def d4bd 0261 07be af7e b9bd 6cbf 01be
00000210: b6a7 bbbc 73fe a4bc 51a5 793c 4caf 063d
00000220: b1bd 12bd 0a5d 25bc 19f4 333d 4a61 8d3c
00000230: f4f0 56bc 9a3f 48bd d005 1bbd 7ce0 17be
00000240: f965 be3d 71a1 ad3c c752 123d d656 ba3d
00000250: a852 5b3d d628 123e 17a7 263e 4178 113e
00000260: 24db 3bbd 0212 cbbd 039b 89bd d0cd 1dbc
00000270: 8850 683d 02b6 a83d 5d81 663c d422 053d
00000280: b5c7 fdbc 833c c23c 1107 0abc 19e6 ba3c
00000290: 179b 8abc 3031 f7bc b1f5 8b3d 3973 0c3e
000002a0: f900 093d b799 b83d 8913 1a3d 9cb1 983d
000002b0: 7156 033e 8bf1 0f3e 433c b23d e1b5 0b3e
000002c0: 4125 2fbe 785b bebc f658 db3c 671c 173d
000002d0: 5ecd b13b 42a8 763c d153 b8bd 3644 d1bd
000002e0: 8634 7abc 07d8 41bc 797b 493e b49f 963e
000002f0: 17b7 b23e a90d 053e 16d1 82bd 3f7b 38bd
00000300: 672c 973d ca5e a43c c63e 31bd 2b30 eabd
00000310: 1069 77bd ce3c 65bc 85e0 9abd 2fd9 1dbe
00000320: 334f 463d daac b63d aa65 593d fc98 dcb9
00000330: 4869 49bd 2371 a13c 3c9f 11bd 5a6d 02bd
00000340: a126 d23d 2934 cc3c 8464 ae3d 5b9b c83d
00000350: e79a c53c 01a7 473d ad2a 973d 61ad dabd
00000360: 4c83 153d e238 413c f06a f3bb 1d08 2b3d
00000370: cb91 523d 9eab f13c 1c90 bd3c 916d 50bd
00000380: aaee 1ebd 52a9 343d 059a f1bd 05b9 90bd
00000390: d4e2 55bd 4a3e ca3b 83d4 263c 2b9f 1b3e
000003a0: 55f4 e13d 619d d83d c644 e8bc b70e 0f3d
000003b0: 788b 11bd df8c 863d 87aa d73d 36f1 073e
000003c0: 2f35 1cba f97b 60bd 9b9e 12bd fc97 b5bd
000003d0: 246e 0abd fe50 47bd 87b9 74bd 6bb8 15bc
000003e0: 3bba 2dbd 6276 28be 1524 f0bd 8742 0d3d
000003f0: 1024 2a3c d825 38bd 11e0 d03c 3867 18be

conv1.bias f4 [32]
0.07307235 0.112450324 -0.0020058607 -0.02134712 -0.042129792 0.1261682 -0.09977716 -0.010635337
-0.100981496 0.1127388 0.068088 -0.04107876 0.031908207 0.21504933 0.0045078443 -0.08500224
-0.015349577 -0.0059229014 -0.010295848 0.0006895484 -0.00823581 0.062405605 -0.040897556 -0.0011705853
0.021513639 -0.047410812 -0.0048676557 0.013123733 -0.06991345 0.11276744 -0.010753802 0.17715962
00000000: f5a6 953d 5b4c e63d c274 03bb 28e0 aebc
00000010: 4a90 2cbd 3d32 013e f857 ccbd d63f 2ebc
00000020: 63cf cebd 9ae3 e63d b971 8b3d 3442 28bd
00000030: 2eb2 023d e435 5c3e 8ab6 933b a815 aebd
00000040: cb7c 7bbc e614 c2bb ebaf 28bc cfc2 343a
00000050: 7eef 06bc 059d 7f3d 3284 27bd 536e 99ba
00000060: 5f3d b03c d731 42bd db80 9fbb ed04 573c
00000070: c82e 8fbd 9ef2 e63d b730 30bc 5569 353e

conv2.weight f4 [64, 32, 4, 4]
-0.3300104 -0.26563084 -0.13598742 -0.23638144 -0.29454327 -0.26444882 -0.11222389 -0.08477189
-0.09812971 -0.18880352 -0.10229204 -0.11765391 0.24237314 0.1916364 0.10736824 0.29581234
-0.7784569 -0.27242467 0.12499879 0.023970101 0.29440665 0.4250417 0.41033486 0.15854786
0.38368624 -0.21462908 -0.09262772 -0.076706566 -0.19851695 -0.08572056 0.20207572 0.073189795
-0.05595191 0.079470724 0.10563187 -0.21304284 0.1310107 0.008512481 0.034482196 -0.59364796
-0.1228993 -0.5448067 0.0003184408 -0.24617887 0.46018246 0.5573274 -0.5372105 0.05897714
-0.33313587 -0.17694198 -0.3700228 -0.17034684 0.372409 0.21920808 0.26727015 -0.39054948
0.6166951 0.2889257 0.07151108 0.024219649 -0.020712117 0.004306135 -0.16425294 0.1940954
-0.18919179 0.011017546 0.10253202 0.070381865 0.3830312 -0.12643275 -0.27345207 0.051809937
-0.36367676 -0.6800008 -0.17380467 -0.33352357 0.15115616 0.13452944 -0.10974078 -0.3640319
-0.542641 -0.21822241 -0.015425368 -0.25323802 -0.22636883 -0.15011467 -0.14675978 0.1959021
-0.42307135 -0.21396457 -0.13531567 0.198494 -0.019150207 0.3703886 0.38755807 0.2035938
0.3257621 -0.12950781 0.027639523 -0.026659762 -0.26153418 0.07088267 -0.14692324 -0.09389266
-0.1677471 0.22725232 -0.24711287 -0.29092732 0.14022635 0.022367677 -0.6400437 -0.42195117
0.56088305 0.4203989 -0.4252935 0.18688889 0.31587854 0.16011685 0.17275019 0.03373037
0.18717335 0.23966204 0.074047424 -0.1699419 0.39843446 -0.14070629 -0.31268612 -0.08660299
-0.15636584 -0.007848523 -0.6105417 -0.09813443 0.24713485 0.048332725 -0.47970477 0.08875199
0.017516598 -0.29369545 -0.4090969 -0.765794 0.3873823 0.27156106 0.24936025 0.31184447
-0.38567132 -0.030617636 0.115066424 -0.028425464 -0.049713604 0.24864864 0.3881695 0.2590489
-0.12587942 -0.24731977 0.18281315 -0.24124089 0.16196726 0.16444437 -0.019507103 0.20724492
-0.12821445 -0.48932678 -0.01386484 0.24422655 0.1378822 0.23507617 -0.47868058 -0.31950435
0.27085018 0.17200653 -0.18944143 -0.21623303 -0.09080399 0.04756604 -0.2880269 -0.0944112
-0.18504462 -0.02877651 0.49538454 0.28414905 0.27891687 0.006792326 0.013836176 0.08401904
-0.091558896 -0.50451964 -0.22132504 0.21595587 -0.1751567 0.2927903 0.42994484 -0.059990782
0.41604865 0.26905528 0.3014747 0.33115152 0.14274557 -0.1603417 -0.01573641 0.2742368
0.1521808 0.7642954 -0.23301996 0.25592658 0.015063709 0.10187304 -0.027985707 -0.24283178
0.17953512 -0.06685429 0.16236596 0.11602424 -0.014303132 0.20354916 0.17343608 0.27644822
-0.2431015 0.015516273 0.118867114 0.039929297 -0.03674904 0.11130746 0.1843089 0.08649039
-0.032457963 0.033657566 -0.22191854 0.22734956 -0.16236219 -0.23864353 -0.1912113 0.09952446
0.16017239 -0.02289453 0.13957061 0.11487139 0.19356012 -0.08878599 -0.2208586 -0.31512347
-0.21010326 0.13936642 -0.20602097 -0.06286299 0.036601473 -0.111653075 -0.055616133 -0.06738437
0.23029257 -0.22924735 -0.58876634 -0.20223324 0.27025312 0.058661807 -0.2662157 -0.11030449
00000000: 20f7 a8be c400 88be 4940 0bbe fa0d 72be
00000010: 60ce 96be d665 87be a4d5 e5bd e29c adbd
00000020: 3bf8 c8bd b655 41be 7d7e d1bd 88f4 f0bd
00000030: aa30 783e 553c 443e e1e3 db3d b774 973e
00000040: f448 47bf 3f7b 8bbe 5eff ff3d f25c c43c
00000050: 78bc 963e 119f d93e 6917 d23e 5f5a 223e
00000060: 8672 c43e bac7 5bbe 9ab3 bdbd 5518 9dbd
00000070: 0748 4bbe 438e afbd f0ec 4e3e 88e4 953d
00000080: d42d 65bd 8cc1 a23d 8655 d83d e727 5abe
00000090: ab27 063e ef77 0b3c 343d 0d3d 50f9 17bf
000000a0: a1b2 fbbd 7478 0bbf 67f4 a639 5016 7cbe
000000b0: 099d eb3e 02ad 0e3f a186 09bf 0392 713d
000000c0: c990 aabe 4730 35be a173 bdbe 676f 2ebe
000000d0: 64ac be3e 1578 603e a2d7 883e 1af6 c7be
000000e0: bbdf 1d3f 12ee 933e 6774 923d 4968 c63c
000000f0: 75ac a9bc 7a1a 8d3b ec31 28be f2c0 463e
00000100: 7ebb 41be f082 343c 4ffc d13d 5e24 903d
00000110: aa1c c43e 9677 01be e901 8cbe a836 543d
00000120: d733 babe 8814 2ebf daf9 31be 9ac3 aabe
00000130: aec8 1a3e 16c2 093e c6bf e0bd 6462 babe
00000140: 85ea 0abf b275 5fbe afba 7cbc 6aa8 81be
00000150: 3bcd 67be a9b7 19be 3248 16be 8f9a 483e
00000160: cf9c d8be 8719 5bbe 3190 0abe 0342 4b3e
00000170: e5e0 9cbc 93a3 bd3e 036e c63e e57a 503e
00000180: 4aca a63e b29d 04be 486c e23c 9365 dabc
00000190: cfe7 85be ef2a 913d 0c73 16be cc4a c0bd
000001a0: e5c5 2bbe d5b4 683e 280b 7dbe 6df4 94be
000001b0: 7f97 0f3e 6b3c b73c e7d9 23bf fc09 d8be
000001c0: 0896 0f3f 863e d73e 12c0 d9be cd5f 3f3e
000001d0: d5ba a13e acf5 233e 6de5 303e db28 0a3d
000001e0: 5faa 3f3e f769 753e 2da6 973d 4005 2ebe
000001f0: 9aff cb3e 4f15 10be 6518 a0be e95c b1bd
00000200: 5e1e 20be 1797 00bc 764c 1cbf b4fa c8bd
00000210: eb10 7d3e 89f8 453d dd9b f5be 9ac3 b53d
00000220: f87e 8f3c 405f 96be 2675 d1be 130b 44bf
00000230: f956 c63e 0d0a 8b3e 4b58 7f3e 14aa 9f3e
00000240: b676 c5be d6d1 fabc f2a7 eb3d 85dc e8bc
00000250: 7ea0 4bbd c09d 7e3e 27be c63e 0fa2 843e
00000260: 89e6 00be 6541 7dbe 5f33 3b3e da07 77be
00000270: bfda 253e 1b64 283e 5ccd 9fbc 0338 543e
00000280: a64a 03be 0a89 fabe 5b29 63bc 8616 7a3e
00000290: fe30 0d3e cfb7 703e 9f15 f5be 1396 a3be
000002a0: e0ac 8a3e 7b22 303e effc 41be 316c 5dbe
000002b0: 71f7 b9bd 9cd4 423d 4378 93be a95a c1bd
000002c0: 567c 3dbe b7bc ebbc 0ba3 fd3e fc7b 913e
000002d0: 31ce 8e3e 2992 de3b 21b1 623c 2d12 ac3d
000002e0: 3b83 bbbd 3328 01bf 08a3 62be 8923 5d3e
000002f0: 475c 33be 9ce8 953e bb21 dc3e e5b8 75bd
00000300: 5404 d53e 9dc1 893e e45a 9a3e b18c a93e
00000310: e52b 123e 9d30 24be a5e9 80bc c468 8c3e
00000320: 49d5 1b3e dda8 433f c99c 6ebe cf08 833e
00000330: c6cd 763c d0a2 d03d 4842 e5bc e5a8 78be
00000340: 0ed8 373e e7ea 88bd 4343 263e 1e9e ed3d
00000350: af57 6abc 316f 503e 3a99 313e 9f8a 8d3e
00000360: 9aef 78be f737 7e3c 9a70 f33d e78c 233d
00000370: 2986 16bd 2af5 e33d 79bb 3c3e e021 b13d
00000380: a4f2 04bd 84dc 093d 9d3e 63be 53ce 683e
00000390: 4642 26be f85e 74be e5cc 43be 7bd3 cb3d
000003a0: 3b04 243e 4f8d bbbc 99eb 0e3e b141 eb3d
000003b0: a034 463e 6ed5 b5bd c228 62be dd57 a1be
000003c0: 4f25 57be 12b6 0e3e 29f7 52be 50be 80bd
000003d0: 6deb 153d 5eaa e4bd becd 63bd d100 8abd
000003e0: d1d1 6b3e d1bf 6abe 64b9 16bf 3b16 4fbe
000003f0: 9e5e 8a3e 5d47 703d 6d4d 88be 52e7 e1bd

conv2.bias f4 [64]
0.12020092 0.07292855 -0.14958519 0.054819595 0.02308471 -0.011301454 0.077873684 -0.09686065
-0.022756485 -0.11768636 -0.08393277 0.006395197 0.016666867 0.04674973 -0.014257086 -0.08021452
-0.10401366 0.20600726 -0.044928517 -0.08457792 0.007837036 -0.018367827 -0.21615037 -0.08293015
-0.08386159 0.253179 -0.026263416 -0.02552409 -0.1799795 0.20088717 -0.20073782 0.17425863
0.062035214 0.050902322 0.014211168 -0.0004272774 -0.0014913863 0.037078023 -0.14312674 0.015725363
0.13747433 0.037116736 -0.07330232 -0.05575449 0.08604633 -0.051876847 0.0884462 -0.02762497
0.029494986 -0.04931952 -0.1934448 -0.008723647 -0.046727005 0.13483241 -0.058750026 0.1137699
-0.07986342 -0.15717645 -0.03082161 -0.06050064 -0.04888354 0.18010232 -0.023399137 0.180451
00000000: e62b f63d 905b 953d dc2c 19be 838a 603d
00000010: 251c bd3c bc29 39bc 3d7c 9f3d e05e c6bd
00000020: cf6b babc 8c05 f1bd f2e4 abbd cd8e d13b
00000030: f488 883c a57c 3f3d 8e96 69bc 8347 a4bd
00000040: 1d05 d5bd 91f3 523e f706 38bd 3037 adbd
00000050: e966 003c 2078 96bc 8656 5dbe 48d7 a9bd
00000060: a0bf abbd aea0 813e 6026 d7bc e517 d1bc
00000070: 8c4c 38be 5eb5 4d3e 378e 4dbe db70 323e
00000080: a318 7e3d f47e 503d f5d5 683c 3404 e0b9
00000090: 9f7a c3ba 20df 173d d18f 12be 7ad2 803c
000000a0: 12c6 0c3e b807 183d 871f 96bd d25e 64bd
000000b0: 0f39 b03d d17c 54bd 4823 b53d c34d e2bc
000000c0: 789f f13c 4403 4abd 6516 46be a1ed 0ebc
000000d0: d164 3fbd 8211 0a3e dea3 70bd 3100 e93d
000000e0: 6f8f a3bd ddf2 20be 9a7d fcbc 85cf 77bd
000000f0: 1b3a 48bd be6c 383e 8caf bfbc 26c8 383e

conv3.weight f4 [64, 64, 3, 3]
-0.14602941 -0.16510534 -0.092317015 0.076924294 0.060285736 -0.058037873 0.11088406 0.108902715
0.14450957 0.06904318 -0.020764822 0.00887506 0.040915243 -0.0060224915 -0.02286093 0.1405059
0.08857125 -0.07484539 0.044023316 0.0620902 0.12224917 0.10428741 0.087360114 0.10270876
0.015184136 0.08518664 0.042559903 0.011615693 -0.06808731 -0.027019119 -0.0663822 0.002234113
-0.054575693 -0.012561367 0.066589184 0.18329324 0.009689036 -0.08082159 0.019402437 0.039793357
0.035685457 0.10739203 0.28706008 0.15722051 -0.1302143 0.004671305 -0.0013613033 0.17198965
-0.019611564 -0.023682695 0.12411209 0.06729676 0.10755988 0.21596429 0.06450856 0.12143439
0.047482077 -0.020444276 -0.06172198 -0.14632945 0.014673813 0.1106925 0.019830666 0.004785003
0.02190871 0.03383772 -0.002085849 0.059752405 0.034900483 0.02817885 0.051847633 -0.013085392
0.07344857 0.044456515 0.099856816 0.057183348 0.03762073 -0.024042595 -0.039399184 -0.045174718
-0.01476251 0.085858606 0.09084865 0.027939714 0.015068701 -0.016688734 -0.0049150363 0.059935883
0.042426627 0.015785206 0.10049458 0.080477774 0.09327401 0.06445953 0.03492792 0.114594065
0.038695086 -0.010251297 -0.020147528 0.11568086 -0.027930055 0.022367788 0.040093392 0.057489872
-0.04654666 0.07695025 0.10237039 0.08323626 0.2555921 0.13179941 -0.20153166 -0.032489594
-0.06330843 -0.31196687 0.0026110113 0.064202 -0.12134211 0.051774234 0.06225045 0.03016059
0.027848883 -0.01984841 -0.08066892 0.059165467 0.0977183 0.17739157 0.06663951 -0.06329952
-0.16193528 -0.09238508 -0.010763122 0.025601914 0.047975294 0.027867502 -0.053736772 -0.052041914
0.029128965 0.16566242 0.09684891 0.010101566 -0.06678609 -0.014748156 0.010620491 -0.053967506
0.037016932 0.06256415 -0.005489929 0.010364432 0.05038842 0.004476172 0.029650714 0.0341086
0.017158126 0.044187926 0.010024564 0.17841361 0.055320382 0.082307786 -0.024407139 -0.00060904137
0.037653696 0.015626714 -0.112618394 -0.097280085 0.14941686 0.11007299 0.035757076 0.17360422
0.0864981 0.044068083 0.19420975 -0.04819 -0.06879939 -0.053603113 -0.073459886 0.011604773
0.0007869097 0.15101713 0.18013044 0.106030025 0.102622464 0.047772735 -0.06729153 -0.017198497
-0.11747183 0.005965325 -0.003013403 -0.011869505 0.050882142 0.02222353 0.1286159 0.077158846
0.10635918 0.079462685 0.031146273 0.045845274 0.091335 0.047285907 0.024010828 -0.0023357891
0.018492695 0.03033379 -0.032916006 -0.08128273 0.16407916 0.12066652 0.1337258 0.12212551
0.21442248 0.12285246 0.11377265 0.046074573 0.025383908 0.031685878 0.009405107 0.026058044
0.08442544 0.0058753463 -0.0017834313 0.069896944 0.036475513 0.05634873 0.042458754 -0.024495974
-0.075011 0.047218174 0.006113895 0.07574443 0.027194593 0.0033623956 0.02619866 0.056615528
0.1367767 0.076818556 -0.06818768 -0.004587172 0.17035852 -0.007304116 0.09996602 0.16497298
0.1692875 0.1068218 0.14809489 0.04067837 0.13081141 0.06516696 0.05983725 -0.032277647
-0.083272696 -0.11121101 -0.024066586 -0.007868415 -0.040647812 0.016045358 -0.049782995 0.023446158
00000000: bc88 15be 6011 29be b410 bdbd 7c8a 9d3d
00000010: 2dee 763d 1fb9 6dbd 2f17 e33d 6308 df3d
00000020: 51fa 133e 8366 8d3d fd1a aabc b368 113c
00000030: be96 273d 5258 c5bb d846 bbbc c7e0 0f3e
00000040: d864 b53d 8a48 99bd cb51 343d 4b52 7e3d
00000050: c65d fa3d a394 d53d dce9 b23d f858 d23d
00000060: e2c6 783c 5576 ae3d 4b53 2e3d bf4f 3e3c
00000070: 5c71 8bbd 3357 ddbc 64f3 87bd 326a 123b
00000080: c38a 5fbd 31ce 4dbc e95f 883d 39b1 3b3e
00000090: c3be 1e3c ca85 a5bd dcf1 9e3c 5cfe 223d
000000a0: ea2a 123d 5af0 db3d 8af9 923e 6afe 203e
000000b0: e656 05be bf11 993b c26d b2ba 0e1e 303e
000000c0: 6ea8 a0bc 3602 c2bc 7b2e fe3d e2d2 893d
000000d0: 5b48 dc3d be25 5d3e 101d 843d 98b2 f83d
000000e0: 917c 423d c17a a7bc 30d0 7cbd 63d7 15be
000000f0: 6f6a 703c c0b2 e23d ec73 a23c 84cb 9c3b
00000100: e579 b33c 6c99 0a3d bdb2 08bb f0be 743d
00000110: cff3 0e3d 55d7 e63c 2f5e 543d 1d64 56bc
00000120: 346c 963d 0918 363d bb81 cc3d 1639 6a3d
00000130: 3218 1a3d faf4 c4bc 0a61 21bd 2009 39bd
00000140: 74de 71bc a3d6 af3d db0e ba3d d4e1 e43c
00000150: b6e2 763c d0b6 88bc 500e a1bb 547f 753d
00000160: 8bc7 2d3d fa4f 813c 1ad0 cd3d 88d1 a43d
00000170: 7206 bf3d 5c03 843d 9410 0f3d 4bb0 ea3d
00000180: bd7e 1e3d 0ef5 27bc 6e0c a5bc 16ea ec3d
00000190: 92cd e4bc a73c b73c f838 243d 807a 6b3d
000001a0: b6a7 3ebd 1898 9d3d 91a7 d13d c677 aa3d
000001b0: f8dc 823e 6df6 063e 515e 4ebe cf13 05bd
000001c0: daa7 81bd 1fba 9fbe 801d 2b3b 577c 833d
000001d0: 3682 f8bd 3811 543d 54fa 7e3d 5713 f73c
000001e0: 5723 e43c 2299 a2bc bf35 a5bd 7d57 723d
000001f0: 8820 c83d 23a6 353e 4c7a 883d 2ea3 81bd
00000200: 5dd2 25be 6434 bdbd ce57 30bc 1bbb d13c
00000210: be81 443d 634a e43c 171b 5cbd e729 55bd
00000220: de9f ee3c 69a3 293e b958 c63d 0a81 253c
00000230: 25c7 88bd 40a2 71bc 9101 2e3c 080d 5dbd
00000240: 119f 173d a221 803d dde4 b3bb 94cf 293c
00000250: 1664 4e3d daac 923b 0ee6 f23c 76b5 0b3d
00000260: 338f 8c3c 66fe 343d 123e 243c 0fb2 363e
00000270: a097 623d fc90 a83d 7bf1 c7bc 13a8 1fba
00000280: c33a 1a3d 9803 803c 79a4 e6bd c83a c7bd
00000290: bc00 193e f36d e13d 0376 123d 4ec5 313e
000002a0: ea25 b13d bc80 343d ecde 463e e162 45bd
000002b0: b2e6 8cbd f08e 5bbd 2372 96bd f221 3e3c
000002c0: 9e48 4e3a 3ca4 1a3e 1d74 383e 4526 d93d
000002d0: ba2b d23d 58ad 433d 24d0 89bd dde3 8cbc
000002e0: 1295 f0bd c678 c33b 837c 45bb 5078 42bc
000002f0: cb69 503d 1f0e b63c e3b3 033e 7505 9e3d
00000300: d7d2 d93d 55bd a23d 7826 ff3c 41c8 3b3d
00000310: d80d bb3d deae 413d 5bb2 c43c 0a14 19bb
00000320: fe7d 973c 927e f83c efd2 06bd 8f77 a6bd
00000330: 5e04 283e 0220 f73d 6bef 083e f01c fa3d
00000340: 9191 5b3e 129a fb3d a301 e93d b1b8 3c3d
00000350: eaf1 cf3c 0dc9 013d e117 1a3c ae77 d53c
00000360: 3fe7 ac3d fa85 c03b 06c2 e9ba 2126 8f3d
00000370: 5967 153d edcd 663d 3be9 2d3d c8ab c8bc
00000380: 5e9f 99bd d867 413d 1257 c83b e51f 9b3d
00000390: 32c7 de3c a35b 5c3b 929e d63c afe5 673d
000003a0: 310f 0c3e 0c53 9d3d fba5 8bbd fd4f 96bb
000003b0: 7772 2e3e 5e57 efbb fcba cc3d adee 283e
000003c0: b459 2d3e 63c5 da3d 30a6 173e 5d9e 263d
000003d0: 6df3 053e 4176 853d e717 753d 9135 04bd
000003e0: e08a aabd 99c2 e3bd 4a27 c5bc 86ea 00bc
000003f0: 527e 26bd 8e71 833c 41e9 4bbd 2812 c03c

conv3.bias f4 [64]
0.3177264 0.23293443 -0.027445987 -0.049857248 -0.03226063 -0.052173037 -0.076175466 0.07677404
0.029888118 -0.0019446786 0.18560246 0.03339028 -0.008281945 0.047414027 0.04079189 0.017482081
0.053170785 -0.044277053 0.2464589 0.2901647 0.26457602 0.045576986 0.17200667 0.091536224
0.29810056 0.11087615 0.05604247 0.15104327 0.04955595 0.39760995 0.10425407 -0.09469217
0.25051084 0.053738702 -0.014396687 0.03585483 0.20123594 -0.007916496 0.07124348 -0.021554252
0.28685164 0.32466826 -0.029708628 0.17888306 0.008699532 0.0401328 0.018154828 0.024830079
0.091078095 -0.025712924 0.14114323 0.14334191 0.14608808 0.30779356 -0.03966293 -0.0030505261
0.00825639 0.0744035 -0.052830935 0.10666947 0.26669988 0.11782624 0.00614806 0.015952826
00000000: 09ad a23e 5d86 6e3e 68d6 e0bc 1d37 4cbd
00000010: b923 04bd 65b3 55bd e201 9cbd b53b 9d3d
00000020: edd7 f43c 96e4 feba 920e 3e3e 3fc4 083d
00000030: ffb0 07bc 3635 423d 6615 273d 9536 8f3c
00000040: 9cc9 593d db5b 35bd b95f 7c3e 7890 943e
00000050: 8276 873e efae 3a3d 8422 303e 5877 bb3d
00000060: a3a0 983e 0913 e33d ca8c 653d 16ab 1a3e
00000070: 2efb 4a3d 8893 cb3e 2883 d53d f8ed c1bd
00000080: f542 803e 1d1d 5c3d 15e0 6bbc 84dc 123d
00000090: cb10 4e3e 31b4 01bc 1ae8 913d 8b92 b0bc
000000a0: 38de 923e eb3a a63e 825f f3bc 1f2d 373e
000000b0: 7b88 0e3c 4a62 243d 6fb9 943c 7368 cb3c
000000c0: 2787 ba3d e9a3 d2bc da87 103e 39c8 123e
000000d0: 1d98 153e 1e97 9d3e 9975 22bd 56eb 47bb
000000e0: cf45 073c dd60 983d 4065 58bd 8675 da3d
000000f0: e38c 883e e24e f13d aa75 c93b 80af 823c

fc1.weight f4 [256, 256]
0.10697816 0.023795474 0.074690685 0.056100477 -0.40849435 -0.18697207 -0.32408074 -0.37192863
0.017173322 -0.047257606 -0.09965045 -0.009378173 -0.09912349 -0.5834239 0.11990414 0.068102375
0.009768943 -0.0063864286 -0.0050885305 0.03663289 0.17640741 -0.031140065 -0.28815183 -0.05969808
0.13955046 -0.33099103 -0.009473036 -0.35135868 -0.071624786 0.028152896 -0.02367754 0.1965178
-0.302561 0.054116175 -0.08611852 -0.027949018 0.12796827 0.028628962 -0.12546967 0.22470291
0.05402789 0.044139568 -0.019207103 0.04700839 -0.23307034 -0.14885288 -0.13311543 0.010099835
-0.067961656 0.0034842568 -0.05566229 -0.044497672 -0.7172062 -0.009191482 -0.03023647 -0.07995759
-0.060304698 0.2080153 -0.01243073 -0.01562384 -0.0008066339 -0.025331974 0.076555274 -0.036911227
0.31971914 0.14957257 0.17876239 0.21974503 -0.28294128 -0.1883484 -0.09021677 0.002281731
-0.11973469 0.14933155 -0.21008107 0.00090161874 0.10741799 -0.10976562 -0.3765946 -0.376588
0.062872455 0.0006669747 0.12170292 0.14685117 0.08207693 0.06390634 0.038885288 -0.08253994
0.06213986 -0.8399476 -0.07972371 -0.13757762 0.087280974 -0.047830507 -0.0024013803 -0.040000364
-0.04403225 0.023205662 0.07996008 0.14443468 0.19164352 0.41306487 0.01765031 0.19377175
-0.31805325 -0.31779027 -0.20416412 0.042408366 -0.07923725 0.08156186 0.026564328 0.00433174
-0.18022735 -0.038052324 0.36002877 -0.23689526 0.09436445 0.21166784 0.06932026 0.115780085
-0.014315578 -0.19484572 -0.24813667 0.15387557 0.18923394 -0.27811342 -0.3422851 -0.15222068
-0.1057292 -0.40679502 -0.17446263 0.026407186 0.104524 0.23014745 -0.27192688 -0.28310284
-0.9865665 -0.45981982 0.060226407 -0.11578272 0.28709793 0.28328198 -0.10945971 0.02133211
0.28031385 -0.18078601 -0.19907546 -0.056397453 0.036502544 -0.032744814 0.15744077 -0.03767234
0.03424317 0.022740416 0.062413905 -0.043088004 -0.14054465 -0.031098159 -0.29672036 -0.0708207
-0.016315486 0.1533219 0.2694972 0.18155673 -0.15169537 -0.2174683 -0.02010831 -0.10772603
-0.24314931 -0.31469175 -0.021723025 0.021221023 -0.29728743 0.10492928 -0.18227977 -0.28681606
0.04944178 0.13412425 0.033540554 -0.1177713 -0.3748819 0.289458 -0.10239651 0.24642459
0.18008946 0.1477086 -0.22825074 -0.022147626 0.06261742 -0.039516147 0.05228366 0.04322677
0.046500422 0.25224417 0.2808125 -0.15186611 -0.05443064 -0.022674382 0.0006484129 0.007720223
0.26964903 0.17462637 -0.01862194 0.072838694 -0.10181663 -0.15059865 0.22892086 -0.16911289
-0.45350632 -0.11167276 -0.31442115 0.10673543 -0.17604305 -0.24397808 0.0033138723 0.28504974
-1.0398751 -0.09513049 0.05725759 -0.047914952 -0.016084021 0.05227542 0.066367455 -0.0144306775
-0.10024717 0.10695405 0.067772076 0.18831344 0.17337754 -0.6387148 0.12205983 -0.05268457
0.06761747 -0.06356413 0.032847963 0.020879276 -0.5695688 -0.43330103 0.13769752 0.024427425
0.026469922 -0.04283306 -0.01183351 -0.30921423 -0.28393042 -0.0117567945 0.090326555 0.1487948
0.05605052 0.08602045 0.06964416 -0.004422828 -0.10327938 -0.032969467 0.29144892 0.20298429
00000000: 5e17 db3d baee c23c 6ef7 983d 9dc9 653d
00000010: 2c26 d1be 9b75 3fbe e9ed a5be 6e6d bebe
00000020: 11af 8c3c 3191 41bd 8915 ccbd e9a6 19bc
00000030: 4201 cbbd 455b 15bf 4d90 f53d 4279 8b3d
00000040: eb0d 203c 3f45 d1bb b0bd a6bb 5f0c 163d
00000050: 25a4 343e 7319 ffbc a388 93be f985 74bd
00000060: 51e6 0e3e a877 a9be cb34 1bbc 49e5 b3be
00000070: 04b0 92bd e7a0 e63c 66f7 c1bc f63b 493e
00000080: 47e9 9abe eca8 5d3d e85e b0bd 57f5 e4bc
00000090: 1d0a 033e 4987 ea3c 1f7b 00be 8518 663e
000000a0: 594c 5d3d b1cb 343d 3758 9dbc df8b 403d
000000b0: fea9 6ebe e46c 18be 694f 08be c779 253c
000000c0: 7b2f 8bbd 2158 643b 24fe 63bd 3143 36bd
000000d0: d39a 37bf df97 16bc 79b2 f7bc cec0 a3bd
000000e0: 0f02 77bd f601 553e 43aa 4bbc 22fb 7fbc
000000f0: 4974 53ba 0085 cfbc 03c9 9c3d 3a30 17bd
00000100: 3ab2 a33e 8d29 193e 7d0d 373e d704 613e
00000110: aedd 90be 67de 40be 92c3 b8bd 1889 153b
00000120: 7637 f5bd 5fea 183e 7e1f 57be 9c5a 6c3a
00000130: f7fd db3d cccc e0bd 02d1 c0be 24d0 c0be
00000140: 46c3 803d ead7 2e3a 613f f93d 2760 163e
00000150: f317 a83d 54e1 823d 2e46 1f3d b30a a9bd
00000160: 5e86 7e3d ce06 57bf 2f46 a3bd 26e1 0cbe
00000170: 5ec0 b23d ece9 43bd 7a60 1dbb 6cd7 23bd
00000180: 295b 34bd cd19 be3c 1cc2 a33d afe6 133e
00000190: 333e 443e 3d7d d33e 6297 903c 1a6c 463e
000001a0: e0d7 a2be 68b5 a2be 6610 51be 65b4 2d3d
000001b0: 2447 a2bd e809 a73d 6f9d d93c 45f1 8d3b
000001c0: 858d 38be c1dc 1bbd b155 b83e ac94 72be
000001d0: 2642 c13d 74bf 583e c8f7 8d3d 1c1e ed3d
000001e0: e38b 6abc a385 47be 8a17 7ebe 8f91 1d3e
000001f0: 8bc6 413e e264 8ebe fe3f afbe bddf 1bbe
00000200: 8d88 d8bd 7047 d0be 55a6 32be e253 d83c
00000210: ae10 d63d c6ab 6b3e 003a 8bbe dbf2 90be
00000220: 9f8f 7cbf 816d ebbe f7af 763d 7e1f edbd
00000230: 80fe 923e 560a 913e 6a2c e0bd adc0 ae3c
00000240: 4c85 8f3e f81f 39be 70da 4bbe 0401 67bd
00000250: b183 153d 6d1f 06bd 2738 213e 504e 1abd
00000260: 9142 0c3d 1c4a ba3c b9a5 7f3d 0c7d 30bd
00000270: f0ea 0fbe 91c1 febc bbeb 97be 710a 91bd
00000280: 0ea8 85bc 6b00 1d3e 89fb 893e 02ea 393e
00000290: 0856 1bbe 03b0 5ebe 2fba a4bc 779f dcbd
000002a0: 22fc 78be 471f a1be 7cf4 b1bc b6d7 ad3c
000002b0: 0f36 98be 2ae5 d63d 8ca7 3abe 8ed9 92be
000002c0: 7783 4a3d de57 093e d261 093d 1432 f1bd
000002d0: 85f0 bfbe d733 943e 43b5 d1bd ba56 7c3e
000002e0: 5f69 383e ec40 173e 90ba 69be f06e b5bc
000002f0: 903d 803d afdb 21bd 6427 563d 8e0e 313d
00000300: 3a77 3e3d 2626 813e a8c6 8f3e ca82 1bbe
00000310: aaf2 5ebd a0bf b9bc 41fa 293a edf9 fc3b
00000320: 700f 8a3e 41d1 323e 0a8d 98bc 742c 953d
00000330: 3d85 d0bd 8836 1abe 3b6a 6a3e ee2b 2dbe
00000340: fb31 e8be b0b4 e4bd cffb a0be 1b98 da3d
00000350: a144 34be 64d5 79be 8d2d 593b 0af2 913e
00000360: a11a 85bf c6d3 c2bd ef86 6a3d 7842 44bd
00000370: a3c2 83bc c01e 563d a9eb 873d a66e 6cbc
00000380: 634e cdbd ba0a db3d 16cc 8a3d 3dd5 403e
00000390: e289 313e d082 23bf 81fa f93d c7cb 57bd
000003a0: 077b 8a3d e92d 82bd 968b 063d 040b ab3c
000003b0: 43cf 11bf a2d9 ddbe 9400 0d3e 061c c83c
000003c0: 73d7 d83c b871 2fbd 57e1 41bc 5451 9ebe
000003d0: 545f 91be 929f 40bc 21fd b83d aa5d 183e
000003e0: 3b95 653d 7d2b b03d 99a1 8e3d 5fed 90bb
000003f0: 2484 d3bd fe0a 07bd cb38 953e 1ddb 4f3e

fc1.bias f4 [256]
0.24618915 0.4709424 0.22817364 -0.002695761 0.021939803 -0.03544472 0.28574726 0.3013665
-0.020818502 0.21347395 0.6766456 0.028907493 -0.45708847 0.19871384 0.044724327 0.02386938
-0.012635615 -0.06772112 -0.072589844 0.27847347 0.25360173 0.07734616 0.34757242 0.23424976
-0.013436247 0.20112184 -0.044532295 -0.020735526 0.5928429 -0.18752113 -0.0022474935 -0.06015342
0.46853325 0.17865184 -0.10496109 -0.003254676 0.013100869 0.30799296 0.02445264 0.14046867
0.24805887 -0.034823187 -0.040271863 -0.08048 0.024861066 0.18361683 0.2594343 -0.09154471
0.011256293 -0.11644868 0.0864892 0.14581326 -0.12131492 -0.01046543 -0.09132318 -0.07514511
0.09663692 -0.042303555 -0.09030347 0.0053357417 0.05277699 -0.027332861 -0.07989049 0.04530433
0.4494619 0.29545105 0.07590892 -0.0010401604 0.120301515 -0.08639373 0.038469795 0.024092978
-0.022172054 0.06299577 -0.0133967195 -0.117443666 0.48950735 -0.032157924 0.08464932 -0.033592246
0.14510925 -0.0389685 -0.032597736 -0.07154213 0.097453944 0.12978426 -0.07707956 0.24739507
0.063955985 0.23741318 0.2629755 -0.09863432 0.2741896 -0.023760362 -0.04662255 -0.106732555
0.24991085 0.1475928 0.11133549 -0.127754 0.223329 -0.07739595 0.20754814 0.034822144
0.03313333 0.44329163 0.2149963 0.2951877 0.08376991 0.001588957 -0.08525872 -0.024272759
0.02818373 0.21571359 0.46231666 0.02530827 -0.009551199 0.16312507 -0.050055288 0.23447432
0.012569689 -0.056928165 -0.064353354 -0.07761049 -0.16217957 -0.07391417 -0.06855467 0.16828947
0.21180426 0.15406364 0.005432837 0.14935741 -0.039221637 -0.04782704 -0.078738436 -0.043555353
0.24330592 -0.10111251 0.15891063 0.21809235 0.010107259 0.094472505 -0.061662715 0.05589588
0.33095694 -0.07323718 0.071862616 0.0149668995 0.21205862 0.010912562 -0.059934385 -0.018965896
-0.08943741 -0.07172696 0.027976634 0.025145218 0.025834095 0.24430451 -0.04233193 0.08230346
0.08880033 0.22099033 0.32593864 -0.07629043 0.010567281 -0.06924488 0.33830547 0.072202064
0.16576244 0.021985585 0.16728486 -0.019131273 -0.119797796 0.009383716 -0.051731404 -0.014609263
0.06806476 0.13934454 -0.01105735 -0.10888111 0.2484712 0.010127273 0.28630993 0.32310587
0.21588385 0.06024074 -0.08985856 -0.022080366 -0.011543278 0.52969176 0.08162772 0.2497005
0.03981686 0.06262764 -0.07653814 -0.023211751 0.06755456 0.09889752 0.46797037 0.04566748
-0.008408499 0.21369539 0.60562253 -0.084028244 0.12931338 -0.026363604 0.25933063 -0.068615794
-0.09766141 0.10202917 -0.0056907437 0.019445786 0.2327606 0.07758885 -0.04505725 0.31001955
-0.07025707 0.058164366 -0.008913146 0.21203142 -0.08485139 0.519692 0.018025717 0.026559135
0.19962093 0.0612942 0.19744954 0.065029874 -0.0940683 0.047376573 -0.063229814 0.028266918
-0.018783323 -0.077325284 0.08889225 -0.07431819 -0.011522513 0.007835971 -0.01701519 0.024400305
0.034471978 -0.21656106 -0.06646945 -0.05091472 -0.0070627662 -0.021870675 0.44468716 -0.057529796
0.043659974 0.12110846 0.021339217 0.08381502 0.07273151 -0.0029302444 -0.045921557 -0.080420926
00000000: 0219 7c3e 5d1f f13e 5aa6 693e 5dab 30bb
00000010: 1abb b33c 7c2e 11bd 774d 923e b64c 9a3e
00000020: 908b aabc ea98 5a3e a538 2d3f 68cf ec3c
00000030: 8007 eabe a47b 4b3e db30 373d b889 c33c
00000040: 9c05 4fbc 5fb1 8abd fca9 94bd 1394 8e3e
00000050: 16d8 813e aa67 9e3d 03f5 b13e 2bdf 6f3e
00000060: b423 5cbc e2f2 4d3e 7f67 36bd 8ddd a9bc
00000070: 8dc4 173f 8a05 40be af4a 13bb 6f63 76bd
00000080: 97e3 ef3e 82f0 363e d7f5 d6bd 674c 55bb
00000090: 07a5 563c 41b1 9d3e e750 c83c 05d7 0f3e
000000a0: 2503 7e3e c2a2 0ebd 1cf4 24bd b3d2 a4bd
000000b0: 6fa9 cb3c 0d06 3c3e 93d4 843e cb7b bbbd
000000c0: 516c 383c a57c eebd 4021 b13d 1250 153e
000000d0: f573 f8bd 3277 2bbc a607 bbbd aee5 99bd
000000e0: 94e9 c53d 7e46 2dbd 07f1 b8bd 72d7 ae3b
000000f0: af2c 583d 2ae9 dfbc a09d a3bd 0891 393d
00000100: df1f e63e 5c45 973e 2376 9b3d fe55 88ba
00000110: a460 f63d 32ef b0bd 8192 1d3d a35e c53c
00000120: 2ba2 b5bc ed03 813d ea7d 5bbc 4e86 f0bd
00000130: b5a0 fa3e 07b8 03bd 9f5c ad3d 0698 09bd
00000140: 8597 143e 6f9d 1fbd 3485 05bd ae84 92bd
00000150: ef95 c73d 2ae6 043e e3db 9dbd 2255 7d3e
00000160: 5bfb 823d 711c 733e baa4 863e ca00 cabd
00000170: 9462 8c3e 17a5 c2bc 49f7 3ebd 9996 dabd
00000180: a1e8 7f3e 9122 173e dd03 e43d f2d1 02be
00000190: 5bb0 643e c581 9ebd 8087 543e aaa1 0e3d
000001a0: d1b6 073d 1ff7 e23e fd27 5c3e d822 973e
000001b0: 8f8f ab3d 8d44 d03a 209c aebd aad7 c6bc
000001c0: 91e1 e63c 06e4 5c3e c5b4 ec3e 4a53 cf3c
000001d0: a27c 1cbc 420a 273e c606 4dbd 091a 703e
000001e0: 19f1 4d3c 822d 69bd b1cb 83bd 40f2 9ebd
000001f0: 6712 26be 5060 97bd 6466 8cbd 1354 2c3e
00000200: 37e3 583e dcc2 1d3e f105 b23b 26f1 183e
00000210: dea6 20bd 49e6 43bd 9e41 a1bd 1967 32bd
00000220: 3025 793e 1314 cfbd 78b9 223e 9a53 5f3e
00000230: eb98 253c cd7a c13d 0b92 7cbd 14f3 643d
00000240: 3073 a93e 60fd 95bd b52c 933d ba37 753c
00000250: e525 593e 9aca 323c c27d 75bd 5e5e 9bbc
00000260: f62a b7bd 96e5 92bd 412f e53c 58fd cd3c
00000270: 06a2 d33c f62a 7a3e 3f64 2dbd b78e a83d
00000280: f3dc b53d 4a4b 623e 6ee1 a63e 283e 9cbd
00000290: 6422 2d3c 42d0 8dbd 6036 ad3e adde 933d
000002a0: a1bd 293e 1d1b b43c b94c 2b3e 30b9 9cbc
000002b0: 8c58 f5bd 28be 193c 4fe4 53bd b15b 6fbc
000002c0: 8965 8b3d 56b0 0e3e e329 35bc 0ffd debd
000002d0: 3c6f 7e3e ddec 253c 3797 923e 226e a53e
000002e0: a810 5d3e ffbe 763d c407 b8bd e2e1 b4bc
000002f0: 0420 3dbc e199 073f 6f2c a73d 7db1 7f3e
00000300: 0117 233d ec42 803d 07c0 9cbd 9226 bebc
00000310: 0c5a 8a3d c88a ca3d d099 ef3e d30d 3b3d
00000320: cdc3 09bc f7d2 5a3e 140a 1b3f 0017 acbd
00000330: ba6a 043e 7cf8 d7bc fcc6 843e 7086 8cbd
00000340: b502 c8bd abf4 d03d 6b79 babb c54c 9f3c
00000350: cb58 6e3e e7e6 9e3d f38d 38bd e2ba 9e3e
00000360: f0e2 8fbd c23d 6e3d 7208 12bc c41e 593e
00000370: 91c6 adbd 890a 053f abaa 933c 8b92 d93c
00000380: 6e69 4c3e a10f 7b3d 3630 4a3e 622e 853d
00000390: e2a6 c0bd f00d 423d a27e 81bd 0690 e73c
000003a0: 7cdf 99bc b85c 9ebd 240d b63d 2334 98bd
000003b0: ecc8 3cbc 7262 003c 7163 8bbc 26e3 c73c
000003c0: 7d32 0d3d 2fc2 5dbe 2321 88bd f48b 50bd
000003d0: c76e e7bb 212a b3bc 09ae e33e 5da4 6bbd
000003e0: cdd4 323d b607 f83d 95cf ae3c 36a7 ab3d
000003f0: 42f4 943d 5809 40bb 3e18 3cbd bab3 a4bd

fc2.weight f4 [2, 256]
-0.014731507 0.27692747 -0.3362925 0.018919297 -0.025210794 -0.0072292555 0.032236386 0.0052548735
-0.047231447 -0.16335064 0.17512275 0.018090207 -0.14532167 -0.0019884193 -0.01745457 0.00035485873
-0.0065813363 -0.00024267628 -0.0049641063 -0.1337907 -0.7131968 -0.0058627697 0.082701266 -0.014228814
-0.0020154945 0.0005249762 -0.044150785 -0.018041039 0.1811195 0.7441034 0.01596582 0.024221858
0.14540116 0.024294157 -0.018104836 0.0036234912 -0.04820856 0.07136225 0.0035273412 -0.2405434
-0.004433324 -0.0118685085 0.0024362202 0.038779497 -0.014485946 0.14774251 0.0056371638 0.0036407553
-0.07284595 0.20074226 0.00028560174 0.2159141 0.039115544 -0.021824831 -0.029857026 0.02679655
0.015674544 -0.01344012 0.01865114 0.034686517 -0.0026916375 -0.029189903 0.010686442 -0.008645441
0.14889027 -0.5948158 -0.003053591 0.03681938 0.0064157387 0.02630816 -0.0030998096 -0.01628439
0.044159777 0.036507443 0.04520999 -0.0038319598 0.09587635 -0.013002264 -0.026537027 -0.016693037
0.27270937 0.008918883 -0.00061240053 0.0066286395 0.017881298 0.006364408 0.02193587 -0.00046157368
-0.09330716 0.05019037 0.17118344 0.015118714 0.022762446 0.020289324 -0.016829047 -0.013173251
0.0011232828 -0.0041143456 0.032977484 -0.014570629 -0.0037553192 0.019927083 -0.021504048 0.014197186
0.03808838 0.083799355 0.010718233 0.047636285 0.0033435044 0.015542969 0.0105412025 -0.008613738
-0.01752459 -0.0676308 0.08015192 0.01947991 0.023007808 -0.32869467 -0.0098092295 -0.06662061
0.011973288 -0.050053764 -0.0035595328 -0.04138022 0.7312001 -0.049551263 -0.017805511 -0.23106292
-0.10513363 0.09831737 0.0032372498 0.14304622 0.019091804 -0.0010756627 -0.012912662 -0.04055401
-0.014781389 0.029648947 -0.13736904 -0.2767712 -0.025607964 0.021236444 -0.009592371 0.016119225
-0.1384385 -0.00033622538 0.0033626677 -0.028498096 0.015015161 0.015297508 0.02809847 -0.023505082
-0.097016096 -0.028939389 -0.034581345 -0.037231326 0.03611852 -0.0030785908 -0.0024187881 -0.015074375
0.14405504 -0.041869897 -0.3188328 -0.015369046 0.02135836 -0.0123507725 -0.0058621583 0.03197553
0.00022744894 -0.030975478 -0.0098446645 0.037345756 0.022640157 0.016742136 -0.017711772 -0.03556368
-0.03114415 -0.04192542 0.028760495 0.007784583 0.0844344 0.01967114 0.02275436 -0.015447516
0.021070661 0.11498991 0.020467542 -0.02833726 -0.007149205 0.23505409 0.10798336 0.011151127
-0.02565964 0.028725812 0.00960504 0.0007282864 0.13774335 0.027071305 0.101315595 -0.023969265
0.65004355 0.021313006 0.04557826 -0.04158729 -0.015194498 0.0059718397 0.0012723124 -0.07819841
0.0438229 -0.05887325 -0.7729373 -0.028288115 -0.008606757 -0.5529189 -0.025985435 -0.005093424
0.00012421112 0.3250797 0.0032014744 0.008472423 -0.010106106 0.048467953 -0.007688616 0.00039282464
-0.09078773 -0.0008864147 -0.06269229 -0.010386786 0.8215718 -0.32170698 0.046879634 0.011357778
0.008423845 -0.0029207137 0.01924391 0.015543804 -0.0093370145 0.025094585 0.011631967 -0.02768334
-0.008617263 -0.10115618 -0.018471584 -0.018770052 0.02192119 -0.019946592 0.11199019 -0.042865396
-0.015404056 -0.07059644 -0.010387506 0.020022674 0.015223384 -0.05546306 -0.02321573 0.0014727509
00000000: 6b5c 71bc 70c9 8d3e 882e acbe a4fc 9a3c
00000010: de86 cebc 64e3 ecbb 4d0a 043d 1331 ac3b
00000020: c375 41bd 6445 27be 6153 333e ea31 943c
00000030: 34cf 14be 2450 02bb e3fc 8ebc 550c ba39
00000040: 40a8 d7bb eb76 7eb9 f1a9 a2bb 6e00 09be
00000050: 1194 36bf 7a1c c0bb 485f a93d f91f 69bc
00000060: 6316 04bb 8e9e 093a 74d7 34bd cdca 93bc
00000070: 6477 393e 8f7d 3e3f c0ca 823c eb6c c63c
00000080: 0be4 143e 8a04 c73c 9850 94bc 1878 6d3b
00000090: 5776 45bd 5f26 923d f72a 673b 0251 76be
000000a0: 6b45 91bb 2274 42bc fea8 1f3b 40d7 1e3d
000000b0: 7656 6dbc d049 173e f5b7 b83b bd99 6e3b
000000c0: 4230 95bd 618f 4d3e d1bc 9539 9618 5d3e
000000d0: 9f37 203d fdc9 b2bc b996 f4bc 7084 db3c
000000e0: e767 803c f333 5cbc 47ca 983c 7313 0e3d
000000f0: 2f66 30bb aa1f efbc 3016 2f3c 9ca5 0dbc
00000100: b176 183e d945 18bf c11e 48bb ebcf 163d
00000110: 1e3b d23b 3684 d73c 2d26 4bbb d766 85bc
00000120: e2e0 343d d488 153d 1c2e 393d 9e21 7bbb
00000130: d25a c43d 7307 55bc 2e64 d9bc d6bf 88bc
00000140: 90a0 8b3e 8220 123c 8189 20ba 0f35 d93b
00000150: cd7b 923c 868c d03b dbb2 b33c 5fff f1b9
00000160: d317 bfbd 6b94 4d3d b64a 2f3e 7cb4 773c
00000170: 4f78 ba3c cc35 a63c 12dd 89bc 9fd4 57bc
00000180: 1e3b 933a a2d1 86bb 6613 073d a6b9 6ebc
00000190: cd1b 76bb 1f3e a33c 4229 b0bc 509b 683c
000001a0: 9002 1c3d ff9e ab3d 879b 2f3c 441e 433d
000001b0: b21e 5b3b f0a7 7e3c 02b5 2c3c a320 0dbc
000001c0: bb8f 8fbc 0482 8abd b126 a43d 5594 9f3c
000001d0: df7a bc3c ab4a a8be e4b6 20bc 6370 88bd
000001e0: 9c2b 443c 2d05 4dbd 0d47 69bb 4e7e 29bd
000001f0: ee2f 3b3f 44f6 4abd dddc 91bc c29b 6cbe
00000200: 4d50 d7bd 9e5a c93d 0a28 543b b57a 123e
00000210: 6a66 9c3c 40fd 8cba a18f 53bc f61b 26bd
00000220: a42d 72bc 59e2 f23c 78aa 0cbe f4b4 8dbe
00000230: cbc7 d1bc 0df8 ad3c 5229 1dbc 770c 843c
00000240: d2c2 0dbe 6847 b0b9 3460 5c3b d774 e9bc
00000250: 2602 763c 66a2 7a3c c32e e63c bb8d c0bc
00000260: 60b0 c6bd 4c12 edbc 2ba5 0dbd e07f 18bd
00000270: 03f1 133d 2fc2 49bb 8884 1ebb 83fa 76bc
00000280: 2a83 133e c57f 2bbd 0e3e a3be 73ce 7bbc
00000290: baf7 ae3c e55a 4abc 5917 c0bb c6f8 023d
000002a0: 5c7f 6e39 49c0 fdbc 844b 21bc ddf7 183d
000002b0: da77 b93c ce26 893c 4718 91bc 39ab 11bd
000002c0: 0422 ffbc fdb9 2bbd 219b eb3c d115 ff3b
000002d0: f1eb ac3d 5f25 a13c 5a67 ba3c 9417 7dbc
000002e0: 619c ac3c d47f eb3d 8cab a73c 8b23 e8bc
000002f0: e143 eabb 05b2 703e 6126 dd3d 37b3 363c
00000300: 2a34 d2bc 6552 eb3c 755e 1d3c 79ea 3e3a
00000310: 980c 0d3e a4c4 dd3c 8d7e cf3d 315b c4bc
00000320: 4169 263f 9d98 ae3c 45b0 3a3d 6f57 2abd
00000330: 58f2 78bc 6caf c33b b8c3 a63a 7d26 a0bd
00000340: a47f 333d 1425 71bd 38df 45bf 7abc e7bc
00000350: 5b03 0dbc 188c 0dbf 68df d4bc bde6 a6bb
00000360: ab3e 0239 d970 a63e d4cf 513b ebcf 0a3c
00000370: 1594 25bc 5586 463d c9f0 fbbb 08f4 cd39
00000380: ebee b9bd 495e 68ba d164 80bd 572d 2abc
00000390: 8852 523f c7b6 a4be dc04 403d f915 3a3c
000003a0: 2b04 0a3c 7269 3fbb 68a5 9d3c 70ab 7e3c
000003b0: 47fa 18bc 2993 cd3c 0194 3e3c 2cc8 e2bc
000003c0: 6c2f 0dbc f92a cfbd b851 97bc a7c3 99bc
000003d0: 1194 b33c 0967 a3bc 1d5b e53d a093 2fbd
000003e0: 4b61 7cbc de94 90bd 5c30 2abc 9706 a43c
000003f0: 806b 793c 3c2d 63bd ea2e bebc 5209 c13a

fc2.bias f4 [2]
0.44195092 -0.1397438
00000000: 6447 e23e 0019 0fbe
